clip_to_latent.pt (torch, 398286 bytes, 6 tensors)

layers.0.weight f4 [256, 64]
0.047347475 0.097578645 -0.2345687 -0.01809247 -0.145496 0.03128095 -0.02557693 0.121137105
-0.0717524 -0.24263522 -0.023280758 -0.05953649 -0.047969762 -0.11282753 -0.09702052 0.16096102
-0.020193845 -0.19412313 0.17567493 0.021717617 -0.10195636 0.036605075 0.05320395 -0.1631729
-0.13303962 0.09379972 -0.0517116 -0.052163724 0.14769024 -0.0752299 -0.054419253 -0.0038381382
-0.0023730104 0.06318834 0.06149542 0.08354192 0.0009320211 -0.14053965 0.09535257 0.035731744
0.03865877 -0.07060608 0.1700847 0.15304102 0.19418316 0.06306522 0.13592203 -0.15824753
0.020015156 -0.25714627 0.124625035 0.14046682 0.09209456 -0.049400046 -0.010525238 0.103569224
-0.1780833 -0.006788045 -0.019770425 0.009328108 -0.1473121 0.062322225 -0.0572865 0.08025582
-0.12234343 -0.020170469 -0.08532064 0.11050154 0.022458566 0.15672259 0.12900546 -0.17054471
0.009577744 -0.103829555 -0.10798172 -0.08080042 0.11130369 0.041290358 0.17308277 0.02740681
-0.01958619 0.16780192 -0.018519297 -0.023599131 0.0907265 -0.0042653875 0.030097296 0.0029512974
0.036158003 -0.11990874 0.17547545 -0.0699455 0.0320312 -0.0982614 -0.06998024 -0.15522738
0.17331663 -0.090278886 0.14934921 0.013878507 -0.105151325 -0.20850556 0.13924487 0.19710885
-0.018661907 -0.16519503 0.08463355 -0.045581426 0.0718182 0.14239061 -0.14128667 -0.067297824
-0.13905255 0.13640901 -0.2232479 0.01637947 -0.0014037584 -0.19877565 0.06894214 -0.05672027
0.049345784 -0.08246477 0.10158976 -0.03273867 0.18668431 -0.035157233 -0.07337527 -0.09813515
-0.1355629 0.1654018 -0.12510395 0.1265308 -0.15924394 -0.11573227 -0.046721946 -0.08005542
-0.17586781 -0.12452051 0.008133233 0.033749945 0.04217912 -0.0031291703 0.02525618 0.04055169
-0.02411116 0.09452485 0.08703119 0.20426144 -0.1521553 0.13127789 0.06136217 0.19485424
0.0997474 -0.23155814 0.030458665 0.17294808 -0.1437802 0.01811164 -0.044692982 -0.10505322
-0.12843817 0.21988745 -0.013094478 -0.07446814 -0.22609243 -0.30703253 -0.1778483 -0.04822033
-0.12606746 0.05315446 0.0038715634 -0.11448755 0.032574072 0.04095803 -0.14409226 0.06461432
-0.040859006 0.16010256 0.22928828 -0.13272224 0.034695588 0.024825135 0.14545771 0.08072175
0.0058735237 -0.08525002 0.114207275 0.12636237 0.07437427 0.15962487 -0.06254091 -0.14909041
0.13608883 -0.031407107 -0.05870789 -0.08861912 -0.14605469 -0.08990218 -0.047951646 -0.15926321
-0.094892256 -0.013818523 0.042183094 0.046690796 -0.040747743 0.17525904 -0.10636287 -0.073378675
0.009207671 0.0028122296 0.15475056 0.08607144 -0.016896037 0.08560619 0.09250087 -0.074647196
0.17592373 -0.16569367 0.06035349 0.108843714 -0.010807739 0.1636596 -0.106151916 -0.1013628
-0.13850336 0.10411984 -0.061994005 -0.10723034 0.08037697 0.1134694 -0.016935466 -0.09869786
-0.16125305 -0.24141994 -0.20029114 -0.0828154 -0.07175106 0.02501225 0.20235421 -0.097343154
-0.17620185 0.27671131 0.024645487 -0.07481231 -0.07188668 -0.061812457 0.0053073317 0.043505177
-0.167793 0.1813649 0.13554557 0.061444383 0.085580826 -0.03776634 -0.2171173 0.07447585
00000000: 6def 413d 50d7 c73d c732 70be a936 94bc
00000010: e7fc 14be 7420 003d b686 d1bc bb16 f83d
00000020: ecf2 92bd 5e75 78be 4ab7 bebc 89dc 73bd
00000030: f17b 44bd 1f12 e7bd b2b2 c6bd f7d2 243e
00000040: 906d a5bc 37c8 46be 21e4 333e 25e9 b13c
00000050: 7fce d0bd 34ef 153d 63ec 593d cc16 27be
00000060: 8a3b 08be 111a c03d 8bcf 53bd a1a9 55bd
00000070: 1c3c 173e 2212 9abd b9e6 5ebd 4689 7bbb
00000080: 8284 1bbb e368 813d 9fe2 7b3d 0718 ab3d
00000090: e152 743a a0e9 0fbe 3548 c33d 735b 123d
000000a0: a958 1e3d ec99 90bd af2a 2e3e c9b6 1c3e
000000b0: f3d7 463e 5728 813d 252f 0b3e a40b 22be
000000c0: d3f6 a33c ada8 83be 693b ff3d 89d6 0f3e
000000d0: 139c bc3d b457 4abd 0c72 2cbc 1a1c d43d
000000e0: 785b 36be 406e debb 96f5 a1bc ecd4 183c
000000f0: fcd8 16be 9745 7f3d 40a5 6abd 2a5d a43d
00000100: 318f fabd 8a3c a5bc 96bc aebd a24e e23d
00000110: 07fb b73c e37b 203e 021a 043e 46a3 2ebe
00000120: f8eb 1c3c 97a4 d4bd 8525 ddbd b17a a5bd
00000130: 30f3 e33d 1420 293d 9c3c 313e 3f84 e03c
00000140: 3873 a0bc 44d4 2b3e c8b5 97bc f752 c1bc
00000150: d1ce b93d aac4 8bbb 9b8e f63c 8e6a 413b
00000160: 6a1a 143d b792 f5bd d6af 333e 963f 8fbd
00000170: 2633 033d 463d c9bd cd51 8fbd edf3 1ebe
00000180: ea79 313e 23e4 b8bd 00ef 183e ad62 633c
00000190: 9459 d7bd 7b82 55be 3596 0e3e e7d6 493e
000001a0: dbe0 98bc e328 29be 5b54 ad3d 97b3 3abd
000001b0: 6c15 933d d8ce 113e 74ad 10be 71d3 89bd
000001c0: cb63 0ebe ceae 0b3e 199b 64be 3d2e 863c
000001d0: 51fe b7ba d88b 4bbe 8931 8d3d 8453 68bd
000001e0: ce1e 4a3d 4ae3 a8bd 4b0e d03d fc18 06bd
000001f0: 2c2a 3f3e 0801 10bd c645 96bd 15fb c8bd
00000200: 00d1 0abe 175f 293e 401b 00be 4a91 013e
00000210: d810 23be 0a05 edbd 835f 3fbd 19f4 a3bd
00000220: b116 34be 9c04 ffbd 4041 053c 623d 0a3d
00000230: 03c4 2c3d c412 4dbb 0ce6 ce3c 8719 263d
00000240: c484 c5bc 3f96 c13d 693d b23d e929 513e
00000250: 99ce 1bbe b66d 063e e656 7b3d df87 473e
00000260: 5d48 cc3d 941d 6dbe 7384 f93c 4d19 313e
00000270: 1e3b 13be dd5e 943c fd0f 37bd 2526 d7bd
00000280: 4c85 03be 2d2a 613e 398a 56bc c182 98bd
00000290: c684 67be 5e33 9dbe dd1d 36be ae82 45bd
000002a0: d417 01be 7eb8 593d 0eba 7d3b 7378 eabd
000002b0: 646c 053d 9bc3 273d ec8c 13be 8354 843d
000002c0: c65b 27bd edf1 233e 8cca 6a3e 57e8 07be
000002d0: f61c 0e3d 155e cb3c def2 143e 7251 a53d
000002e0: b076 c03b 9097 aebd 81e5 e93d 2365 013e
000002f0: 8a51 983d b474 233e 7315 80bd 28ab 18be
00000300: df5a 0b3e bda4 00bd af77 70bd f17d b5bd
00000310: 5c8f 15be a21e b8bd f268 44bd e515 23be
00000320: df56 c2bd 1667 62bc 2ec8 2c3d d93e 3f3d
00000330: 1be7 26bd 1b77 333e c7d4 d9bd 8f47 96bd
00000340: c5db 163c 624d 383b ee76 1e3e 3946 b03d
00000350: 8f69 8abc 4c52 af3d 1971 bd3d a1e0 98bd
00000360: 5a25 343e 9aab 29be 3935 773d 74e9 de3d
00000370: f112 31bc 6296 273e 2d66 d9bd 4d97 cfbd
00000380: d3d3 0dbe c83c d53d 6ded 7dbd 959b dbbd
00000390: ae9c a43d a562 e83d 3fbc 8abc 1b22 cabd
000003a0: 851f 25be ca36 77be 1f19 4dbe 1f9b a9bd
000003b0: 38f2 92bd 7de6 cc3c f135 4f3e d95b c7bd
000003c0: 426e 34be 1bad 8d3e 55e5 c93c 3237 99bd
000003d0: 5339 93bd 0f2f 7dbd 20e9 ad3b 7c32 323d
000003e0: eed1 2bbe b8b7 393e 75cc 0a3e 1bad 7b3d
000003f0: 0045 af3d e1b0 1abd ff53 5ebe cb86 983d

layers.0.bias f4 [256]
-0.068714164 -0.066901185 -0.11903693 -0.09470673 0.029292358 0.0026189496 0.015542682 -0.035188492
0.0058266446 -0.1168278 -0.1836793 -0.16089612 -0.083398834 -0.0068226354 -0.04004447 -0.008626503
-0.20071024 -0.05218021 -0.023859076 -0.16547044 -0.22023174 0.015102156 -0.16275074 -0.18782106
-0.04717131 -0.03611501 -0.03506465 -0.14769116 -0.0046736947 -0.11714894 -0.01951356 -0.16121635
-0.010810639 -0.18970679 -0.113099925 -0.034942165 -0.13011421 -0.21037309 -0.1943985 -0.04757964
-0.19299252 -0.018332366 0.015930966 -0.19183296 0.004729163 0.022408973 -0.1195401 -0.2214187
0.02573134 0.0010705038 0.010371542 -0.13481283 -0.019938903 -0.04914156 -0.10085554 -0.10989051
-0.047901887 -0.10888445 -0.05090918 -0.15415935 -0.10959366 -0.18020697 -0.096448965 -0.0041529206
-0.1561118 -0.009372437 -0.1678924 -0.100300156 -0.07214904 -0.0959994 -0.10434168 -0.16261853
-0.10694283 -0.06429621 -0.11181888 0.025141524 -0.116067685 -0.18047263 -0.08468459 -0.12017664
-0.09189163 -0.029299704 -0.06869052 -0.026147204 -0.19899651 0.019571286 -0.052589566 -0.07124396
-0.13358058 -0.111461185 -0.10955317 -0.01782321 -0.0283041 -0.16684878 -0.07934631 -0.14009994
-0.045268558 -0.18655945 -0.0047091357 0.002336445 -0.053772278 0.023827074 -0.18009508 -0.06256946
-0.034507032 -0.02296054 -0.05937037 -0.17646775 -0.12988007 -0.08826921 -0.064180814 -0.18465373
-0.17783031 -0.09405003 -0.09253314 -0.039350662 -0.1498862 -0.10717695 -0.10495021 0.03917667
-0.22610688 -0.07582187 -0.20976785 -0.09220922 -0.0047704983 -0.013861225 -0.18054858 -0.06861767
-0.07968404 0.026879312 -0.04282778 -0.17745163 -0.08301072 -0.03646541 -0.16241208 -0.05776986
0.013640617 -0.06904404 -0.041870933 -0.19555575 0.02434051 -0.12484772 -0.14271964 -0.04337972
0.013866171 -0.008174412 -0.16265316 -0.20707184 -0.014003604 -0.012661117 -0.21677083 -0.07558959
-0.12523285 -0.08127134 -0.087284915 -0.035489578 -0.10038282 -0.03073371 -0.15353131 -0.16314296
0.023371328 -0.16911535 0.014535167 -0.14026275 -0.08517065 0.03448546 -0.15628274 -0.0036725507
-0.21682054 -0.14763142 -0.0422086 -0.017999034 -0.029493805 -0.08723523 -0.1089689 -0.12991738
-0.04708726 -0.07526688 -0.12984367 -0.1695675 -0.12681621 0.00044388385 0.027523914 -0.046939917
-0.2047072 -0.17166641 -0.16501875 -0.050661586 -0.01976616 -0.1121757 -0.21074691 -0.09549862
-0.18630013 -0.06766733 -0.17452282 -0.108213246 -0.041088063 -0.10065012 -0.19237293 -0.037222236
-0.11806045 -0.079946406 -0.0656273 0.008692289 -0.16314812 -0.13563414 -0.069397256 0.009221548
-0.17253347 -0.0059501785 -0.034692455 0.0018048538 -0.03256705 -0.053385947 -0.048053578 -0.011274737
-0.01170204 -0.08654023 -0.029269494 -0.01584139 -0.056869186 -0.04455169 -0.086306095 -0.19888754
-0.08883337 -0.014597561 0.007851857 -0.0036067988 -0.011178055 -0.067958765 -0.06348387 -0.15896167
-0.035874784 0.019638639 0.0030803112 -0.15791796 0.0072950716 -0.085139625 -0.14293453 -0.13622618
-0.073922455 -0.14658096 -0.014453651 -0.082747735 -0.2042239 -0.17584541 -0.013224092 0.051478945
-0.13606353 -0.011185041 -0.1722674 -0.17493775 -0.1182259 -0.0055147307 -0.07385497 -0.13520886
00000000: 03ba 8cbd 7d03 89bd a2c9 f3bd 9af5 c1bd
00000010: 87f6 ef3c afa2 2b3b bca6 7e3c cf21 10bd
00000020: 70ed be3b 6a43 efbd 6d16 3cbe f4c1 24be
00000030: 02cd aabd 6a90 dfbb ac05 24bd 2d56 0dbc
00000040: fc86 4dbe eaba 55bd 1c74 c3bc 1571 29be
00000050: 6e84 61be 096f 773c 21a8 26be 2a54 40be
00000060: b436 41bd 55ed 13bd f39f 0fbd 5a3c 17be
00000070: cb25 99bb c9eb efbd e7da 9fbc e615 25be
00000080: 1b1f 31bc 7f42 42be efa0 e7bd 841f 0fbd
00000090: a93c 05be 0b6c 57be 6610 47be dee2 42bd
000000a0: d59f 45be c22d 96bc a881 823c dc6f 44be
000000b0: 18f7 9a3b 0693 b73c 71d1 f4bd 95bb 62be
000000c0: 88ca d23c 2650 8c3a 66ed 293c 600c 0abe
000000d0: e956 a3bc a948 49bd 598d cebd 470e e1bd
000000e0: c534 44bd cffe debd 2586 50bd f3db 1dbe
000000f0: a472 e0bd 2d88 38be 0987 c5bd 3915 88bb
00000100: c6db 1fbe da8e 19bc fceb 2bbe 2b6a cdbd
00000110: e0c2 93bd 559b c4bd 17b1 d5bd 7985 26be
00000120: d804 dbbd bbad 83bd 4c01 e5bd 99f5 cd3c
00000130: e5b4 edbd d1cd 38be 1d6f adbd 2c1f f6bd
00000140: ae31 bcbd ef05 f0bc 9ead 8cbd a932 d6bc
00000150: bec5 4bbe f653 a03c 2868 57bd 5ae8 91bd
00000160: 59c9 08be c345 e4bd 6a5d e0bd fb01 92bc
00000170: 00de e7bc 68da 2abe 5180 a2bd 5c76 0fbe
00000180: 866b 39bd 7109 3fbe 184f 9abb 0b1f 193b
00000190: 5240 5cbd ff30 c33c d86a 38be 6b24 80bd
000001a0: 3f57 0dbd be17 bcbc 582e 73bd f6b3 34be
000001b0: 48ff 04be 7dc6 b4bd 3b71 83bd de15 3dbe
000001c0: 2619 36be 4d9d c0bd 0482 bdbd 292e 21bd
000001d0: c57b 19be 977f dbbd 23f0 d6bd b777 203d
000001e0: 9088 67be 7f48 9bbd 62cd 56be 30d8 bcbd
000001f0: d751 9cbb 311a 63bc bae1 38be 6c87 8cbd
00000200: 6331 a3bd 0132 dc3c 2f6c 2fbd e1b5 35be
00000210: 8601 aabd c15c 15bd 5a4f 26be 17a0 6cbd
00000220: e57c 5f3c f666 8dbd db80 2bbd c43f 48be
00000230: c065 c73c 29b0 ffbd 1925 12be efae 31bd
00000240: f02e 633c f8ed 05bc 8d8e 26be a40a 54be
00000250: 5f6f 65bc 9370 4fbc 2cf9 5dbe b7ce 9abd
00000260: 0a3d 00be 9771 a6bd 6fc2 b2bd 855d 11bd
00000270: 8295 cdbd 43c5 fbbc 5037 1dbe f30e 27be
00000280: 3a75 bf3c 932c 2dbe e924 6e3c 0aa1 0fbe
00000290: f36d aebd a040 0d3d 9508 20be 2daf 70bb
000002a0: 3406 5ebe b12c 17be ede2 2cbd b672 93bc
000002b0: fe9c f1bc 62a8 b2bd 162b dfbd 1009 05be
000002c0: 92de 40bd 8625 9abd bdf5 04be 1aa3 2dbe
000002d0: 1cdc 01be 15b9 e839 d579 e13c 1244 40bd
000002e0: c49e 51be 52c9 2fbe adfa 28be 8682 4fbd
000002f0: a4ec a1bc 60bc e5bd 0ace 57be c894 c3bd
00000300: 76c5 3ebe 2b95 8abd 1cb6 32be e89e ddbd
00000310: f54b 28bd a621 cebd 69fd 44be 5876 18bd
00000320: adc9 f1bd f1ba a3bd 9b67 86bd 1a6a 0e3c
00000330: 4d10 27be ade3 0abe 2620 8ebd fa15 173c
00000340: 9dac 30be b7f9 c2bb ad19 0ebd d890 ec3a
00000350: 0765 05bd 39ab 5abd d4d3 44bd adb9 38bc
00000360: eab9 3fbc 013c b1bd 94c6 efbc cdc5 81bc
00000370: aaef 68bd d57b 36bd 40c1 b0bd 2da9 4bbe
00000380: 45ee b5bd 9c2a 6fbc 13a5 003c 0b60 6cbb
00000390: 2924 37bc f72d 8bbd d503 82bd d9c6 22be
000003a0: 70f1 12bd 36e1 a03c 0cdf 493b 3fb5 21be
000003b0: 7f0b ef3b af5d aebd 6e5d 12be e07e 0bbe
000003c0: a864 97bd 5219 16be 02cf 6cbc a577 a9bd
000003d0: 1220 51be d210 34be dda9 58bc 96db 523d
000003e0: 3d54 0bbe 7641 37bc de66 30be e222 33be
000003f0: 6c20 f2bd eab4 b4bb 4641 97bd 3174 0abe

layers.1.weight f4 [256, 256]
0.0455284 -0.08550922 -0.023229118 -0.20383717 0.0063670687 -0.08869815 0.08018517 0.050269045
0.024432708 -0.0018524423 0.017527895 0.014672851 0.03355332 -0.0023462872 0.043682 -0.0040801764
-0.05820346 0.044716142 0.03873232 -0.12542501 -0.021614822 0.09321719 0.18033853 0.11935228
0.06544683 0.011153608 0.0237518 0.016690541 0.123304464 0.0853025 0.14112061 -0.03749208
-0.021065706 -0.16527303 0.050264504 -0.025399879 -0.042016517 -0.014939236 0.016163783 -0.09023672
-0.07302547 0.14017716 -0.03119574 -0.0043820683 -0.21353562 -0.09037323 -0.047355913 -0.03610468
-0.12990932 0.05835271 0.09015215 0.02230923 0.042279683 -0.09242555 -0.15359998 -0.024777474
-0.043923084 0.093393706 -0.09761962 0.029219937 -0.09522362 -0.03434569 -0.020317027 -0.050110135
-0.025403587 -0.16088514 0.04884122 -0.020266391 0.026898785 -0.048872937 -0.16027986 -0.098000236
0.0031016346 -0.029793888 0.12164924 0.10930132 0.056067348 -0.05195884 -0.008411692 0.12127226
-0.18054388 0.03294356 0.045210835 0.004453634 0.018641656 0.08216365 0.09970767 0.003577386
0.032828774 0.093531445 -0.15320015 -0.012502547 -0.015346189 0.17972027 -0.060711447 0.05349934
0.0009348942 -0.19178763 0.06392701 -0.18329255 0.14654258 -0.004256245 -0.039449997 0.038025845
-0.1118376 0.06107379 0.061610747 -0.01593406 -0.14085865 0.0567844 0.008586536 -0.28210887
-0.040764004 0.012956505 0.078396365 0.16023394 0.03042209 0.0042863986 0.051876582 0.03173401
0.06199763 0.081852525 -0.026325526 0.12948373 0.010997738 -0.056636617 -0.031390913 0.013719866
0.07954987 -0.026908267 -0.04052442 0.028448844 0.08291269 -0.00041785603 -0.09366853 -0.069074236
0.018160637 0.058559358 0.05837468 0.0033907632 -0.010561264 -0.13127095 -0.017377393 -0.045841187
-0.08487094 -0.12570488 0.06730162 0.02029938 0.035624668 -0.03214182 0.038555134 0.02524132
-0.014637927 0.07710003 -0.004776717 0.044158783 0.106389664 -0.022533625 -0.0721806 -0.0961357
0.07489827 -0.06776995 -0.02811876 0.017594252 -0.074706785 -0.07368708 -0.026644714 -0.2559421
-0.1851277 0.10027531 0.015974818 -0.057165354 0.08081342 0.06496601 0.10690173 0.023533681
-0.03139141 -0.060349472 -0.10293891 -0.02358909 -0.07581105 0.0560591 -0.03082221 -0.03616574
-0.026008274 -0.18231694 0.036439043 -0.055781465 -0.026002036 0.034702834 0.115276955 -0.05159115
0.036409818 0.049144734 -0.1636864 0.009222375 0.011795923 0.022509322 -0.112258844 0.08138374
-0.18785562 0.04349767 -0.04856865 0.047052227 -0.15281355 0.027812114 0.0504066 -0.121879995
0.06918534 -0.09553531 -0.017553316 0.03987865 -0.16647132 -0.02205434 0.02236148 -0.024228767
0.006113628 -0.14282945 0.121673435 0.029486269 -0.049871836 0.034745127 0.026145522 0.09316653
-0.051124897 -0.06649511 -0.053580925 -0.03134193 0.004350389 -0.00796604 -0.034442473 0.044740736
0.01812392 -0.095149755 0.052247588 0.038025424 0.0104310075 -0.0033787042 -0.06975792 -0.11851168
0.1702825 0.07820187 -0.08530439 0.039417498 -0.01351835 0.02745457 -0.14247961 -0.11052938
0.018161923 -0.056246825 -0.03693767 -0.095022306 -0.08515079 -0.011856556 0.097136445 -0.01129993
00000000: fd7b 3a3d 751f afbd fe4a bebc b1ba 50be
00000010: d8a2 d03b 60a7 b5bd 1f38 a43d eae6 4d3d
00000020: 1a27 c83c a6cd f2ba a996 8f3c 6666 703c
00000030: 356f 093d 2bc4 19bb e6eb 323d 00b3 85bb
00000040: c066 6ebd 4628 373d c8a5 1e3d 6a6f 00be
00000050: 9111 b1bc a7e8 be3d aaaa 383e f86e f43d
00000060: fd08 863d 9fbd 363c 2393 c23c 9aba 883c
00000070: 0d87 fc3d 14b3 ae3d ec81 103e 4c91 19bd
00000080: fd91 acbc 553d 29be 27e2 4d3d 6813 d0bc
00000090: 8319 2cbd b3c3 74bc e969 843c 08ce b8bd
000000a0: 618e 95bd 9a8a 0f3e 358e ffbc 7497 8fbb
000000b0: 15a9 5abe 9a15 b9bd 46f8 41bd 80e2 13bd
000000c0: f306 05be 4003 6f3d b1a1 b83d d9c1 b63c
000000d0: 762d 2d3d 9b49 bdbd 5049 1dbe 21fa cabc
000000e0: b1e8 33bd 3345 bf3d ccec c7bd a65e ef3c
000000f0: 9a04 c3bd 11ae 0cbd e56f a6bc 4940 4dbd
00000100: 2f1b d0bc 13bf 24be bb0d 483d b405 a6bc
00000110: d75a dc3c fd2e 48bd 6720 24be 59b4 c8bd
00000120: cb44 4b3b 5012 f4bc 3d23 f93d 5fd9 df3d
00000130: e0a6 653d cbd2 54bd 32d1 09bc 975d f83d
00000140: 7fe0 38be d4ef 063d ff2e 393d caef 913b
00000150: 63b6 983c 6a45 a83d 8933 cc3d 9472 6a3b
00000160: 7777 063d 6a8d bf3d 80e0 1cbe 7cd7 4cbc
00000170: 956e 7bbc 9708 383e 91ac 78bd 2022 5b3d
00000180: b013 753a fa63 44be 2aec 823d 0bb1 3bbe
00000190: 420f 163e f977 8bbb 5296 21bd fdc0 1b3d
000001a0: 1d0b e5bd 8328 7a3d 8d5b 7c3d 2588 82bc
000001b0: 403d 10be c296 683d 8bae 0c3c 9370 90be
000001c0: 28f8 26bd 8547 543c 468e a03d 5e14 243e
000001d0: bf37 f93c eb74 8c3b 8a7c 543d 85fb 013d
000001e0: 3af1 7d3d 4ca2 a73d a1a8 d7bc 6297 043e
000001f0: db2f 343c ccfb 67bd c293 00bd 4ac9 603c
00000200: 0beb a23d ba6e dcbc effc 25bd 8d0d e93c
00000210: 21ce a93d b013 dbb9 49d5 bfbd cb76 8dbd
00000220: 9ec5 943c f0db 6f3d 4a1a 6f3d 9137 5e3b
00000230: 2709 2dbc e46b 06be 095b 8ebc f8c3 3bbd
00000240: d1d0 adbd c8b8 00be 6fd5 893d e34a a63c
00000250: 2ceb 113d 24a7 03bd fdeb 1d3d e2c6 ce3c
00000260: ead3 6fbc 9fe6 9d3d 0286 9cbb d7df 343d
00000270: d3e2 d93d 7098 b8bc 6cd3 93bd cbe2 c4bd
00000280: 4464 993d f9ca 8abd 5059 e6bc d221 903c
00000290: dfff 98bd 40e9 96bd 0446 dabc d80a 83be
000002a0: 1e92 3dbe 245d cd3d 9fdd 823c 3826 6abd
000002b0: 8281 a53d e60c 853d 4bef da3d b5c9 c03c
000002c0: 4794 00bd 0231 77bd a3d1 d2bd e83d c1bc
000002d0: d342 9bbd 3a9e 653d dc7e fcbc 8722 14bd
000002e0: 4e0f d5bc 4bb1 3abe 1b41 153d 1b7b 64bd
000002f0: 3902 d5bc 8f24 0e3d 5316 ec3d 3e51 53bd
00000300: 7622 153d fd4b 493d 689d 27be 7219 173c
00000310: b043 413c 7865 b83c f7e7 e5bd 85ac a63d
00000320: 395d 40be 9d2a 323d ecef 46bd d6b9 403d
00000330: 287b 1cbe 3bd6 e33c 2777 4e3d 389c f9bd
00000340: 0bb1 8d3d 04a8 c3bd f9cb 8fbc cc57 233d
00000350: 7577 2abe 4eab b4bc 6c2f b73c 687b c6bc
00000360: d454 c83b e241 12be ec2f f93d 308d f13c
00000370: 6946 4cbd e850 0e3d 222f d63c 18ce be3d
00000380: 5768 51bd 972e 88bd ac77 5bbd 6560 00bd
00000390: b58d 8e3b fe83 02bc 8d13 0dbd 1042 373d
000003a0: 9d78 943c e0dd c2bd 9101 563d 8cc0 1b3d
000003b0: d1e6 2a3c 406d 5dbb 3edd 8ebd 40b6 f2bd
000003c0: 895e 2e3e 4d28 a03d 11b4 aebd 3e74 213d
000003d0: 127c 5dbc 68e8 e03c 2de6 11be 3a5d e2bd
000003e0: 50c8 943c 1263 66bd f44b 17bd 0e9b c2bd
000003f0: 8a63 aebd 0042 42bc 79ef c63d 5723 39bc

layers.1.bias f4 [256]
0.05162499 0.0045297407 -0.065011725 0.0014855196 0.006709349 -0.01368422 -0.038539603 0.046949808
0.05908654 -0.045105945 0.027256705 0.021387301 0.0069795726 0.010512303 0.02234997 0.033115387
0.08732367 0.05907799 -0.009347841 -0.06431757 0.045705363 -0.007223756 0.058945924 0.0626879
0.03014643 0.01251688 0.03438343 -0.020263793 0.008325116 -0.048009027 -0.045023512 -0.045548726
-0.031939927 -0.07134328 -0.006738486 -0.018276634 0.02854934 0.07155448 0.020990584 0.020529665
0.030336024 -0.0034794852 -0.040821187 -0.029886534 0.013301383 -0.0035495313 0.00575711 0.046302244
-0.06696884 0.007469061 0.010859519 -0.03753651 -0.047918078 -0.03248559 -0.03896224 0.002137517
-0.041005533 0.008348518 0.05120872 0.04635322 -4.8152506e-05 -0.022292035 0.010216881 -0.013433712
-0.03404963 -0.008027513 0.0064487453 -0.026770737 -0.06898809 0.011811018 -0.020143619 0.014649996
0.01327594 -0.036326826 0.009806391 0.01643636 0.0069642006 -0.030364834 -0.057316676 -0.029299894
-0.048598263 0.021118283 -0.031008625 -0.0431936 0.06251714 -0.0079972325 0.005779367 -0.050307978
0.054146968 -0.016761944 -0.010842713 -0.019940363 -0.004288163 -0.038715005 0.038395848 -0.057205226
-0.045485146 0.0099062715 0.010774269 -0.044265594 -0.033046573 0.033518985 0.032698683 0.020615708
0.0160989 -0.0024857405 -0.01440229 -0.044129208 0.029307794 -0.042405564 -0.036711685 0.060784012
-0.07529958 -0.045645718 -0.011451378 -0.025866952 -0.06987992 0.053917944 0.02636858 -0.06699508
0.0051659048 0.06443885 0.06350887 0.040677935 0.020348957 0.040360503 0.06447636 0.04608324
-0.057331014 0.0038137173 0.061925255 -0.04503744 -0.03374883 0.008107279 0.047489755 0.04144651
-0.047494978 0.01228157 -0.014623579 -0.0030590454 -0.05437389 0.06463306 0.04459179 0.0180996
-0.046518378 0.01921446 0.012441238 0.025304066 -0.00048669055 -0.062382538 0.007190349 0.021568568
-0.0013238157 0.039382134 0.0368436 0.008983374 -0.020534752 0.017815936 -0.015222167 0.07079153
-0.008693292 -0.054841384 0.05099925 0.0508897 -0.0755763 -0.0029027057 0.049784236 0.00394091
-0.07563997 -0.008321148 0.031686254 0.037016924 0.039519243 0.033703957 -0.039716337 0.044576902
-0.026482662 0.03185326 -0.005980458 0.0067866524 0.016200282 0.02274695 -0.033654194 0.045722004
-0.033920165 0.05022747 0.0011771373 0.03926349 -0.024015231 -0.020429343 -0.0703547 0.0031622425
-0.07812485 0.047744047 0.041107688 0.039170004 -0.055344846 -0.066991664 -0.010860524 -0.0074715093
0.026088508 -0.0137581555 -0.0494385 -0.06562304 -0.023462037 0.07609571 0.055289783 0.025211126
0.050592657 -0.03911018 -0.005108019 0.004937719 0.034704477 0.0024412049 -0.040962473 -0.074035436
-0.035718612 -0.04554188 0.0331329 0.057607967 -0.043348797 0.06450787 0.033792544 -0.048607476
-0.039123528 0.09075404 0.06178279 -0.05056411 0.022752734 0.05163648 0.046984814 0.05511866
-0.01614373 0.05025082 0.042436894 0.025283849 -0.018164068 0.065643385 -0.043400593 0.04535735
0.021286635 -0.028976606 -0.061200548 0.042142846 0.02740534 0.009842723 0.00087536033 -0.0039099953
0.030077318 -0.03827545 0.01791136 0.020807391 0.030811146 -0.05131809 0.0028507959 0.04199325
00000000: ba74 533d 386e 943b de24 85bd c4b5 c23a
00000010: 19da db3b c733 60bc b4db 1dbd 714e 403d
00000020: ba04 723d 03c1 38bd 7449 df3c 6c34 af3c
00000030: e6b4 e43b cb3b 2c3c 4917 b73c 00a4 073d
00000040: c1d6 b23d c3fb 713d b027 19bc eeb8 83bd
00000050: 8c35 3b3d 42b5 ecbb 4871 713d 8462 803d
00000060: a5f5 f63c 9a13 4d3c a4d5 0c3d 4100 a6bc
00000070: 1166 083c 1da5 44bd 936a 38bd 4d91 3abd
00000080: 71d3 02bd 6d1c 92bd 84ce dcbb e1b8 95bc
00000090: 4ee0 e93c 288b 923d 72f4 ab3c d42d a83c
000000a0: 4183 f83c 1308 64bb 1e34 27bd 9bd4 f4bc
000000b0: 0bee 593c 419f 68bb 24a6 bc3b 6ca7 3d3d
000000c0: f626 89bd 06bf f43b 20ec 313c e2bf 19bd
000000d0: bf45 44bd 9c0f 05bd df96 1fbd 9615 0c3b
000000e0: 6bf5 27bd 39c8 083c 3cc0 513d e0dc 3d3d
000000f0: 5cf7 49b8 c99d b6bc b464 273c 1219 5cbc
00000100: a077 0bbd d485 03bc ff4f d33b 4e4e dbbc
00000110: a149 8dbd 0083 413c 3b04 a5bc 8906 703c
00000120: 5483 593c 70cb 14bd fcaa 203c 8ca5 863c
00000130: f333 e43b acbf f8bc e4c4 6abd 5506 f0bc
00000140: f90e 47bd 4000 ad3c cd05 febc c6eb 30bd
00000150: fc08 803d d306 03bc d860 bd3b bd0f 4ebd
00000160: 36c9 5d3d 5850 89bc a2a5 31bc f959 a3bc
00000170: b883 8cbb a093 1ebd f744 1d3d 0750 6abd
00000180: a24e 3abd ea4d 223c 8f86 303c d74f 35bd
00000190: d85b 07bd 344b 093d 0eef 053d 46e2 a83c
000001a0: d7e1 833c cee7 22bb 95f7 6bbc d4c0 34bd
000001b0: e616 f03c 75b1 2dbd fe5e 16bd a8f8 783d
000001c0: ab36 9abd 01f7 3abd 909e 3bbc eee6 d3bc
000001d0: 341d 8fbd 10d9 5c3d ec02 d83c b734 89bd
000001e0: c046 a93b 84f8 833d f010 823d e89d 263d
000001f0: dbb2 a63c 0e51 253d 2f0c 843d c8c1 3c3d
00000200: edd3 6abd 8fef 793b 56a5 7d3d 2e79 38bd
00000210: 373c 0abd 65d4 043c 9e84 423d d1c3 293d
00000220: 188a 42bd a338 493c bc97 6fbc 447a 48bb
00000230: 28b7 5ebd 565e 843d e1a5 363d 9d45 943c
00000240: 0e8a 3ebd a567 9d3c 56d6 4b3c 794a cf3c
00000250: 802a ffb9 d584 7fbd 059d eb3b 91b0 b03c
00000260: e283 adba 294f 213d 51e9 163d 002f 133c
00000270: 7f38 a8bc baf2 913c 6566 79bc 26fb 903d
00000280: 4f6e 0ebc 5ca1 60bd 97e4 503d b871 503d
00000290: bfc7 9abd 523b 3ebb 8eea 4b3d c022 813b
000002a0: 21e9 9abd 6d55 08bc 72c9 013d 0f9f 173d
000002b0: eede 213d 290d 0a3d 99ad 22bd 4596 363d
000002c0: 2bf2 d8bc 9078 023d b8f7 c3bb 9162 de3b
000002d0: 74b6 843c d057 ba3c fbd8 09bd ff46 3b3d
000002e0: dfef 0abd 52bb 4d3d 2c4a 9a3a c1d2 203d
000002f0: 97bb c4bc 705b a7bc 2016 90bd a03d 4f3b
00000300: ecff 9fbd 438f 433d 8960 283d ba70 203d
00000310: 47b1 62bd ed32 89bd 57f0 31bc 90d3 f4bb
00000320: 91b7 d53c e369 61bc 0680 4abd 5f65 86bd
00000330: 7533 c0bc 11d8 9b3d 8a77 623d 9087 ce3c
00000340: 3f3a 4f3d ff31 20bd 2b61 a7bb 97cc a13b
00000350: 4826 0e3d 9ffc 1f3b 44c8 27bd e49f 97bd
00000360: ae4d 12bd 1f8a 3abd 5db6 073d 55f6 6b3d
00000370: 828e 31bd b41c 843d 0d6a 0a3d a218 47bd
00000380: fe3f 20bd 41dd b93d f30f 7d3d 501c 4fbd
00000390: f163 ba3c c680 533d 2673 403d 1bc4 613d
000003a0: db3f 84bc ced3 4d3d 4fd2 2d3d 1320 cf3c
000003b0: d0cc 94bc 0a70 863d d2c4 31bd a1c8 393d
000003c0: 4f61 ae3c 5960 edbc 6dad 7abd fa9d 2c3d
000003d0: 2a81 e03c 5f43 213c 7078 653a 6b1f 80bb
000003e0: b564 f63c b8c6 1cbd d8ba 923c 4374 aa3c
000003f0: a867 fc3c eb32 52bd 6bd4 3a3b 1d01 2c3d

layers.2.weight f4 [64, 256]
-0.025789147 0.063509926 0.015169053 -0.057401225 0.085843116 0.005991889 -0.028837215 0.016199756
-0.041470777 -0.03146097 0.07415015 0.041438706 0.15856184 -0.046550762 -0.0655822 0.025364392
-0.0501497 -0.024157131 -0.040921897 0.0536515 -0.16722102 0.057988998 0.05210942 -0.01819059
0.0011518367 0.10159897 0.073559545 0.027404893 0.0115502775 -0.006454014 0.111305654 -0.059509575
-0.10063433 0.025907569 0.013038439 0.015020783 0.043410778 -0.021520387 0.028646715 0.0048653963
0.014563591 -0.033683397 -0.0047301124 -0.044383876 0.06733561 -0.05104382 0.0764148 -0.11260857
0.006601247 0.012946576 -0.013782522 0.22848786 -0.05346319 -0.12853152 -0.023199733 -0.0021104056
-0.010513208 -0.01647984 -0.0116773965 0.049324475 0.105577886 -0.13981034 -0.07052715 0.00015533042
0.06647371 -0.016994039 -0.0049811383 0.056827758 0.13580991 0.06324594 -0.056687925 0.008492369
-0.05283039 -0.03170777 -0.088838145 0.078202605 -0.12957594 0.10699454 -0.10887587 0.017175063
0.04943676 -0.08604484 0.01261025 0.002901486 -0.012250921 0.010953769 -0.016465202 0.0009401507
0.084267616 -0.07311082 -0.0029391302 0.15744698 0.10186442 0.0798403 -0.070545636 0.10520121
0.011428162 0.03869421 -0.115163155 0.04958013 0.016127044 0.17087293 -0.102351025 -0.12531397
0.101598665 -0.12542988 0.009163014 0.094557196 -0.12049404 -0.05504371 -0.097343475 0.081671484
-0.17530215 -0.043618083 0.036687944 -0.017501865 -0.028646873 -0.10828331 -0.10667024 -0.1059716
0.08709985 -0.0714542 0.034915417 -0.01820408 0.12463822 0.003928929 -0.02768724 0.017512336
0.24063566 -0.029284207 -0.025095772 -0.09283391 -0.017670767 -0.0035049017 0.014384673 0.010489734
-0.031409614 -0.08562146 0.057191927 0.03829087 0.14983459 0.04395427 -0.07190479 -0.007936686
0.12185288 0.07564546 0.11701141 0.01593399 0.06842118 0.122715466 -0.054070134 0.04451631
-0.0064009055 0.027987162 0.05290699 -0.050721306 0.046292596 0.11253031 0.106372036 -0.004673217
0.03938951 0.03880562 0.07349109 0.013320261 -0.080201305 0.032993224 -0.11517623 0.00071935594
0.009230198 -0.1331489 0.0104254605 -0.034138236 -0.040089343 0.14025436 -0.12538739 -0.032303132
-0.14989266 -0.07196038 0.058440052 0.0125585245 -0.06290065 -0.100282185 -0.092890635 0.16595781
-0.03565502 0.07319834 -0.024261136 -0.041895535 -0.027476108 -0.021937989 -0.037544034 0.0052243504
0.061658118 0.07921422 -0.078236215 0.018257177 -0.06134337 0.12778328 0.09302736 -0.013183544
0.0190181 0.13783175 0.153947 -0.0165757 -0.05906457 -0.025316024 0.099544264 0.11848607
0.057267323 -0.08375015 0.055799026 0.16006349 -0.05877462 -0.0642623 -0.015367096 -0.04192883
-0.06770858 -0.019680353 0.047955375 0.1674867 0.010240681 -0.044375543 -0.0067457566 0.12693058
-0.17997637 -0.1017224 0.10803965 -0.012166946 -0.03926343 0.028199548 0.052212622 -0.093264766
-0.041066416 0.05197533 0.05533738 -0.15025099 0.009441443 -0.017977303 -0.050880026 0.0014510801
0.15309261 -0.011967464 0.02815436 0.09155496 0.010455045 0.020138249 -0.05488498 -0.032397907
0.03971088 0.025222355 -0.06346785 -0.020584008 -0.09181721 0.053340465 -0.056423213 -0.058769476
00000000: c343 d3bc 7e11 823d 9f87 783c 8c1d 6bbd
00000010: 84ce af3d 9c57 c43b 063c ecbc 5ab5 843c
00000020: 43dd 29bd 38dd 00bd 09dc 973d a2bb 293d
00000030: 095e 223e 03ac 3ebd f64f 86bd fcc8 cf3c
00000040: c669 4dbd 2de5 c5bc b89d 27bd adc1 5b3d
00000050: fd3b 2bbe df85 6d3d b070 553d 6f04 95bc
00000060: 3af9 963a 1f13 d03d 63a6 963d 3a80 e03c
00000070: 603d 3d3c 327c d3bb 38f4 e33d 50c0 73bd
00000080: 5f19 cebd 1c3c d43c 2d9f 553c bb19 763c
00000090: 80cf 313d 864b b0bc 84ac ea3c e76d 9f3b
000000a0: 219c 6e3c 9af7 09bd 0fff 9abb decb 35bd
000000b0: 41e7 893d 5313 51bd 5d7f 9c3d 529f e6bd
000000c0: 464f d83b e01d 543c 16d0 61bc b9f8 693e
000000d0: 38fc 5abd c49d 03be 5e0d bebc bb4e 0abb
000000e0: 973f 2cbc bb00 87bc 8d52 3fbc 7608 4a3d
000000f0: 3839 d83d 712a 0fbe 8a70 90bd 31e0 2239
00000100: 5e23 883d 1537 8bbc d138 a3bb 39c4 683d
00000110: c111 0b3e 1687 813d 9931 68bd 9423 0b3c
00000120: ae64 58bd 02e0 01bd c6f0 b5bd b028 a03d
00000130: 8eaf 04be f41f db3d 50fa debd b8b2 8c3c
00000140: 337e 4a3d 4738 b0bd 399b 4e3c db26 3e3b
00000150: 16b8 48bc 7077 333c 08e2 86bc 7274 763a
00000160: 8094 ac3d 20bb 95bd 6c9e 40bb c839 213e
00000170: 4b9e d03d 5083 a33d 3b7a 90bd bb73 d73d
00000180: 303d 3b3c d27d 1e3d a9da ebbd 8914 4b3d
00000190: dd1c 843c 50f9 2e3e 6a9d d1bd 4e52 00be
000001a0: f612 d03d b170 00be 7720 163c 34a7 c13d
000001b0: 94c5 f6bd 8375 61bd 045c c7bd 6143 a73d
000001c0: 6882 33be e0a8 32bd 1946 163d 1260 8fbc
000001d0: d9ac eabc a4c3 ddbd ed75 dabd a307 d9bd
000001e0: 6861 b23d 9456 92bd 7803 0f3d b920 95bc
000001f0: 5342 ff3d 3fbe 803b 5ad0 e2bc 0876 8f3c
00000200: 3269 763e 6fe5 efbc a695 cdbc b41f bebd
00000210: 49c2 90bc 7eb2 65bb b1ad 6b3c 22dd 2b3c
00000220: 5ea7 00bd 4e5a afbd 1542 6a3d e3d6 1c3d
00000230: 3d6e 193e 6509 343d d242 93bd e008 02bc
00000240: 018e f93d 02ec 9a3d aea3 ef3d 0088 823c
00000250: 6720 8c3d 3f52 fb3d a578 5dbd bc56 363d
00000260: b0be d1bb 5545 e53c 00b5 583d 25c1 4fbd
00000270: 4e9d 3d3d 4b76 e63d 95d9 d93d c921 99bb
00000280: e556 213d a4f2 1e3d 7f82 963d 393d 5a3c
00000290: 9540 a4bd e723 073d 84e1 ebbd 2993 3c3a
000002a0: 423a 173c 2f58 08be 8dcf 2a3c 89d4 0bbd
000002b0: b934 24bd d79e 0f3e 8d65 00be 4a50 04bd
000002c0: 767d 19be f75f 93bd d65e 6f3d 45c2 4d3c
000002d0: 0ed2 80bd bf60 cdbd 723d bebd d8f0 293e
000002e0: 000b 12bd 03e9 953d 4abf c6bc a79a 2bbd
000002f0: 9315 e1bc 4cb7 b3bc c6c7 19bd 0731 ab3b
00000300: 398d 7c3d 113b a23d 4f3a a0bd 1390 953c
00000310: 2f43 7bbd 9fd9 023e 2185 be3d cbff 57bc
00000320: d9cb 9b3c c423 0d3e 48a4 1d3e c3c9 87bc
00000330: b1ed 71bd 8d63 cfbc dddd cb3d d3a8 f23d
00000340: 2491 6a3d 3385 abbd 858d 643d afe7 233e
00000350: a8bd 70bd f49b 83bd 46c6 7bbc 91bd 2bbd
00000360: ccaa 8abd b138 a1bc db6c 443d a281 2b3e
00000370: 87c8 273c 21c3 35bd 820b ddbb 17fa 013e
00000380: ba4b 38be d553 d0bd e443 dd3d df57 47bc
00000390: b1d2 20bd bd02 e73c e7dc 553d 9901 bfbd
000003a0: 4235 28bd 15e4 543d 73a9 623d 65db 19be
000003b0: 48b0 1a3c 2345 93bc 9367 50bd 2b32 be3a
000003c0: 4fc4 1c3e 2f13 44bc f9a3 e63c 2b81 bb3d
000003d0: a34b 2b3c f8f8 a43c 13cf 60bd abb3 04bd
000003e0: e0a7 223d 1d9f ce3c 6ffb 81bd cb9f a8bc
000003f0: a90a bcbd 887b 5a3d 071c 67bd 43b8 70bd

layers.2.bias f4 [64]
-0.032548014 0.054515682 0.08061924 0.048491698 0.045869075 -0.10049595 0.019941805 0.012201419
-0.012158108 -0.010501587 -0.0138213625 -0.035900775 0.0802662 0.08817723 -0.052321035 0.032642126
0.044716634 -0.0045981132 -0.035320565 0.05059261 0.03673502 0.04104188 -0.029327143 -0.022675868
-0.036343947 0.05467545 -0.014798104 0.010394305 -0.066089205 0.08260975 0.028816773 -0.054276053
-0.027781812 0.06923943 -0.015969839 0.016218778 0.040431574 -0.057074152 -0.009776461 0.06656605
0.022509882 -0.04524774 -0.018282667 -0.06279813 -0.07386754 0.030800676 -0.06455094 -0.07848427
-0.0114112375 0.0039404514 0.077183396 -0.02092521 -0.046071313 0.023298293 -0.003128873 0.016052896
-0.01816772 0.029299099 0.037533198 -0.025359834 -0.008612671 -0.051522832 -0.030567793 -0.009624892
00000000: 1151 05bd d64b 5f3d b31b a53d 3b9f 463d
00000010: 36e1 3b3d d2d0 cdbd ff5c a33c 76e8 473c
00000020: cd32 47bc d90e 2cbc ff72 62bc b10c 13bd
00000030: 9b62 a43d 4396 b43d 954e 56bd c0b3 053d
00000040: ca28 373d c5ab 96bb 4cac 10bd 323a 4f3d
00000050: 7677 163d 881b 283d 7a3f f0bc bec2 b9bc
00000060: 64dd 14bd 5df3 5f3d bf73 72bc e04c 2a3c
00000070: c759 87bd 4d2f a93d 2711 ec3c 9150 5ebd
00000080: af96 e3bc 67cd 8d3d 2ed3 82bc 3edd 843c
00000090: 949b 253d 96c6 69bd 732d 20bc c853 883d
000000a0: a566 b83c b255 39bd 88c5 95bc 4e9c 80bd
000000b0: dd47 97bd b351 fc3c 4933 84bd 5cbc a0bd
000000c0: 33f6 3abc e71e 813b 5412 9e3d 596b abbc
000000d0: 46b5 3cbd 10dc be3c c70d 4dbb 5d81 833c
000000e0: 78d4 94bc aa04 f03c 69bc 193d 6dbf cfbc
000000f0: 291c 0dbc 9b09 53bd 4f69 fabc b9b1 1dbc
