clip_to_latent_64_encode.pt (torch, 398514 bytes, 6 tensors)

layers.0.weight f4 [256, 64]
000000 24 b2 6a 3e 58 cf b9 bd 66 a7 75 3e 93 18 8d be
       0.22919518 -0.09072751 0.23989639 -0.2755781
000010 7a 9c c7 bd 05 ec e1 3e a3 5b 16 3e 70 9f 66 be
       -0.097466424 0.4412538 0.14683394 -0.22521758
000020 fb 4e 98 be ab 5b f4 bd 46 ba bb 3c 42 97 93 bd
       -0.29747757 -0.11931547 0.02291597 -0.072065845
000030 8e 98 dd be cb 5b 29 3e 29 87 cb be 55 51 ce be
       -0.43280452 0.16538922 -0.39751557 -0.40296426
000040 aa 44 9f 3e 0b 51 55 be 54 1e 2b 3f 20 55 2a be
       0.31107074 -0.20831697 0.6684315 -0.16634035
000050 f2 86 8e 3e 24 a9 f6 be dd 5d 9d be 36 fb eb bd
       0.2783733 -0.4817592 -0.30735675 -0.11522524
000060 30 e1 2d 3e 0b bb 6e be af af aa bd 07 9b 0a 3f
       0.16980433 -0.23313539 -0.0833429 0.541428
000070 a5 f0 24 3d ed 85 71 bc c7 1e 85 bd ea 97 4c 3e
       0.04026856 -0.014741403 -0.06500011 0.19979826
000080 f0 85 c0 3e ce cb 7c bc f9 2e ad 3d f7 d1 92 3e
       0.37602186 -0.01542945 0.08456225 0.28675815
000090 07 d1 e6 bd 9a db 07 3f cc 47 3e 3f 9b 97 e3 be
       -0.112703376 0.5306946 0.74328303 -0.44451603
0000a0 79 34 d2 bd 0e 30 ef 3c ee dd d7 be 7a dd 98 bd
       -0.102639146 0.029197719 -0.42161506 -0.07464118
0000b0 27 c7 75 bd 27 79 a2 bd 56 05 88 be c6 5a ab 3e
       -0.06000438 -0.07933264 -0.2656657 0.33467692
0000c0 1b 0e 69 bd 4e 96 07 3b 98 26 b0 be 4d 0a 3c be
       -0.056898218 0.0020688954 -0.34404445 -0.18363304
0000d0 62 69 6b be fc c6 e8 3e db 56 c1 bd d7 0e a2 bd
       -0.22989419 0.45464313 -0.094403945 -0.07912987
0000e0 af 78 df 3e 0d 91 70 3e 2c 8a 9e 3b b4 31 02 3e
       0.43646762 0.23492832 0.0048382487 0.12714273
0000f0 95 6e 82 be c4 05 1b bf 91 10 97 be 13 b5 15 be
       -0.25474992 -0.6055567 -0.29504827 -0.14619856
000100 c5 2c 0c bc e4 61 24 bd 12 03 8b 3e a9 28 df be
       -0.008555596 -0.04013242 0.2715078 -0.4358571
000110 58 03 3d 3e 71 61 9b 3e 8e db cf bd ce a8 d8 bd
       0.18458307 0.3034778 -0.101492986 -0.10579072
000120 45 3d 7a be ea a7 be 3e 99 c0 1c 3e 95 03 4a bd
       -0.24437435 0.37237483 0.15307845 -0.049319822
000130 a9 48 bf be 8b b5 f5 3e dd 6d b1 3e 0f 65 a8 be
       -0.37360123 0.4799007 0.34654132 -0.32889602
000140 06 90 28 be b8 da d4 be da 68 c4 3c a9 2d 27 3e
       -0.1646119 -0.4157312 0.023975778 0.16326012
000150 8a 3f 46 bd ba 99 a4 be d7 75 06 3f b7 35 a8 be
       -0.04840044 -0.32148534 0.5252356 -0.3285348
000160 70 42 47 3e fd f1 88 bc d9 92 1f be e4 ff 4d bf
       0.19458938 -0.016716952 -0.15583362 -0.80468583
000170 11 10 ae 3e 78 75 96 be 3f a4 e1 3e 4c 15 1c be
       0.33996633 -0.29386497 0.44070622 -0.15242499
000180 b0 b2 6b 3d ac 9a 08 3d 5e 88 00 be cb 34 2b be
       0.057543457 0.03335063 -0.1255202 -0.16719358
000190 b4 ba c4 3d e1 eb c6 3d ee 2a 50 3c 43 df f3 be
       0.09605923 0.09712959 0.012705548 -0.47631273
0001a0 32 6e e2 3d d8 c2 15 3e 9a 20 c5 3d 4f ab cc be
       0.11056174 0.14625108 0.09625359 -0.39974448
0001b0 1b 80 ca bd cb 1b 0d bf c9 6f b5 3e d9 27 4a be
       -0.098877154 -0.55120534 0.35436848 -0.19741763
0001c0 17 89 c6 3e ac f2 19 3e a9 aa 61 be 25 ee c1 be
       0.38776466 0.15033978 -0.22037758 -0.37877002
0001d0 fc b4 db be 24 36 7b 3e 83 01 53 be 8a ff fb be
       -0.42911518 0.24532372 -0.20606045 -0.49218398
0001e0 67 f7 db bd 38 0e eb 3e ca 35 db 3d 96 b3 3d 3c
       -0.107405476 0.45909286 0.10703619 0.011578461
0001f0 fd 04 25 3c 71 c3 e7 bd 26 c4 91 3d 3f fe 10 bf
       0.01007199 -0.11316574 0.071174905 -0.5663795
000200 81 53 7b 3d e7 84 5f 3d 14 ad e1 3d 33 38 9b be
       0.061358932 0.054570105 0.1101934 -0.30316314
000210 f2 1f e5 be 54 fb 6a 3e 7d d8 86 bd 40 ea c5 3e
       -0.44750935 0.22947437 -0.065842606 0.3865528
000220 fa ad 95 3d 09 ff 48 be 83 df ce 3e af fa 63 3d
       0.07308574 -0.19628538 0.404049 0.055658992
000230 13 90 a6 3d 74 93 cf bc 2c b5 29 3e 90 ee 41 3e
       0.08132949 -0.025338866 0.16573018 0.1893866
000240 67 23 f6 bd ee 9a 3e be 28 d1 5d 3e 05 61 0d be
       -0.12018471 -0.18613788 0.21661818 -0.13806541
000250 de 67 d8 3c 74 5e 39 be 2f b3 b7 3e ce a3 9b 3d
       0.026416715 -0.18102437 0.35878894 0.07599603
000260 a8 fb 7c 3e e3 27 dc be 2b 0e cb 3e 40 15 d3 be
       0.24705374 -0.4299918 0.39659247 -0.4122715
000270 34 5c 3c 3e 55 9a 0f be 74 ce 95 3e df f2 90 be
       0.18394548 -0.14023717 0.29259074 -0.28310296
000280 39 66 51 3e 4d c6 2e 3f 39 64 55 be 96 15 2f bf
       0.20449151 0.6827133 -0.20839013 -0.6839231
000290 68 e0 d6 bd 95 a6 bb bd 42 b4 24 be b7 1c 1c 3f
       -0.10492021 -0.091626324 -0.16084388 0.60981315
0002a0 27 e3 85 3c f8 c0 2c 3e b0 71 23 bc 02 e2 bb be
       0.016343666 0.16870487 -0.009975836 -0.36695868
0002b0 a0 c1 25 3e 10 f1 13 bd 88 17 ef bc 00 8b d5 be
       0.16187143 -0.036118567 -0.029186025 -0.4170761
0002c0 e1 26 9a be 13 20 9d bd 1f 28 81 3e 80 a7 04 3e
       -0.30107787 -0.07672133 0.25225922 0.12954521
0002d0 10 2b d0 bd 44 41 d2 be b1 5f f6 bd 29 f3 3e be
       -0.101644635 -0.4106542 -0.120299704 -0.18647446
0002e0 ed bd b6 be 59 02 eb 3d e3 e6 4f bd 44 e8 7c bd
       -0.35691777 0.11475057 -0.0507573 -0.061744943
0002f0 8e 35 e1 3d f1 df 5a be 1f 49 74 be 23 35 15 bf
       0.10996543 -0.2137449 -0.23856018 -0.58284205
000300 95 16 a0 3e 24 39 12 3e 79 91 9e 3e 92 ab 29 3e
       0.3126723 0.1427961 0.30970362 0.16569355
000310 eb f3 8d 3e 2f 35 c7 be 4c b4 b9 be d8 2a 8f bd
       0.27725157 -0.38907763 -0.36270368 -0.06990594
000320 05 60 5a be 31 5a 2d be 86 d9 d4 3e bb 60 bc bd
       -0.21325691 -0.16928937 0.41572207 -0.091981374
000330 0c 33 6a bc 17 d6 4c 3e e2 b8 8c 3e 9b e0 0a be
       -0.014294397 0.20003544 0.27484804 -0.13562243
000340 91 23 cc 3e 71 f5 b0 3d 9f c7 9c 3e bc ff d8 bd
       0.39870885 0.08640564 0.3062105 -0.105956525
000350 4f 5c 1d 3d fe f8 09 3f f4 bb 20 bd dc 58 c9 3c
       0.03841811 0.53895557 -0.039241746 0.024578504
000360 3a 3a f1 bd f2 67 53 3e d9 d1 63 3e bd b0 bf bc
       -0.11778684 0.2064512 0.2224802 -0.023399705
000370 61 29 2f bc 31 be 50 be 59 d7 ce 3e 20 53 fd 3e
       -0.010691018 -0.20385052 0.40398672 0.49477482
000380 39 30 fb 3e 5a b8 ee 3d bc e7 cc 3e c1 c0 49 be
       0.49060228 0.11656256 0.4002055 -0.19702436
000390 5e 1c 6a 3c a8 b0 c0 bd 7a 43 9c bd ba 84 4f be
       0.01428899 -0.094086945 -0.07630058 -0.20265475
0003a0 27 91 ee 3d 2e bc c6 3d 4b 06 0e 3e 38 50 87 3e
       0.11648779 0.09703861 0.13869588 0.2642839
0003b0 a6 df df 3e 56 86 19 bf 5d fc bd be 55 48 72 be
       0.43725318 -0.59970605 -0.371066 -0.23660405
0003c0 22 42 92 be a0 3a 51 3e fc 81 80 be 9f 09 e3 3e
       -0.2856608 0.2043252 -0.2509917 0.44343278
0003d0 df e6 20 3f bf 11 95 be db e0 cb 3c a9 90 04 3e
       0.6285228 -0.29115102 0.024887493 0.12945808
0003e0 d9 4e 75 3b c8 8e 35 3c bc c9 cc 3d 96 bc 43 3e
       0.003743103 0.011081405 0.09999415 0.19114909
0003f0 54 08 e7 3d ca 22 ae be 07 bd ab 3e 61 0a f2 be
       0.11280885 -0.34010917 0.33542654 -0.47273543

layers.0.bias f4 [256]
000000 17 07 1d bf c4 cf bf be 80 26 b3 bd 0c 34 b1 be
       -0.61338943 -0.374632 -0.08747578 -0.3461002
000010 9b b4 88 be f3 a1 05 bf f6 14 78 be 75 00 71 be
       -0.2670029 -0.5220024 -0.24226746 -0.2353533
000020 5e d4 37 be a4 75 d9 be 6a c5 bb be 6c 9e bd bd
       -0.17952105 -0.42472565 -0.36674052 -0.09258732
000030 fb 6d f1 be 79 81 04 bf 52 5f 6d be cb 3b 98 be
       -0.4715422 -0.5176006 -0.23180893 -0.29733118
000040 17 d6 ce be 7b 85 06 be 94 28 00 bf 77 fb 85 be
       -0.40397713 -0.13136856 -0.5006192 -0.26168415
000050 26 89 33 be a1 84 4d be d9 3a 14 bf 09 50 53 be
       -0.17532787 -0.20070125 -0.57902294 -0.20636
000060 e7 96 77 be ff 06 c0 be d0 f1 5a be ab 9e a4 bd
       -0.24178658 -0.37505338 -0.21381307 -0.08038076
000070 1c 2c b2 be 7a aa ea be c7 51 d1 be cb 9c d5 be
       -0.34799278 -0.45833188 -0.40882704 -0.41721186
000080 a4 00 fe be f2 8f 17 bf 06 87 fc bd 5b 89 a8 be
       -0.49609864 -0.5920402 -0.12330441 -0.32917294
000090 19 c6 67 be 6e 93 e7 be 2f c0 09 bf 28 39 03 be
       -0.22634162 -0.45229667 -0.53808874 -0.12814772
0000a0 2a d8 a6 be 23 e3 d3 be dd 1a 47 be 24 d2 d3 be
       -0.32586795 -0.4138423 -0.19443841 -0.41371262
0000b0 04 97 78 be 67 fc ed be 1d c9 a7 be 0d 42 74 be
       -0.24276358 -0.4648163 -0.32770625 -0.23853321
0000c0 02 ab a4 be 5c 48 02 be 6b 5a 3a bd a4 01 81 be
       -0.3216172 -0.12722915 -0.045496386 -0.25196564
0000d0 4a be f6 bd 5c b5 da be 7c 68 c2 be b8 e0 be bd
       -0.120480135 -0.4271649 -0.3797034 -0.093202055
0000e0 f2 5c 90 be 9e 2e 0b bf 2c 6c f7 be b1 4b 2f be
       -0.28195912 -0.5436801 -0.48324716 -0.17118718
0000f0 fc c9 da be b1 eb 91 be a2 a4 6f be e4 c7 78 be
       -0.42732227 -0.2850013 -0.23402646 -0.24295002
000100 a3 a3 1e be f4 4c 6c bd c7 79 91 be c7 f2 92 be
       -0.1549211 -0.057690576 -0.2841322 -0.2870085
000110 b2 09 62 be 15 fd e6 be c3 98 e3 bd 67 4b aa be
       -0.22074011 -0.4511496 -0.11113121 -0.33260652
000120 2a be 7a be ea e5 08 be 3b fc 0b bf 67 44 a4 be
       -0.24486604 -0.13368955 -0.5468175 -0.32083437
000130 94 7d 98 be ae a4 8c be e1 3d c7 bd f7 28 7d be
       -0.29783309 -0.2746939 -0.09728599 -0.24722658
000140 a6 9b 8e be 20 21 a8 be 9a 30 cd be 6f 31 88 be
       -0.27853125 -0.32837772 -0.40076143 -0.26600215
000150 8c a7 b0 bd 30 42 dd be a4 54 0c be a8 e1 1d be
       -0.08625707 -0.4321456 -0.13704163 -0.15418112
000160 91 a9 a0 be 9d 86 13 be c3 9c f8 be e2 68 56 be
       -0.3137937 -0.1440682 -0.485571 -0.20938447
000170 03 c5 76 be 3e 82 c8 be 63 e6 3b be 9d 8e 1a be
       -0.24098592 -0.39161867 -0.18349604 -0.15093465
000180 ae fa 98 be 96 45 80 be a2 69 c5 be aa 3c cf bd
       -0.29878753 -0.2505309 -0.38557154 -0.101189926
000190 a2 82 94 be f2 86 bd be 3c 0c 8a be 2f 5e c9 bd
       -0.29005915 -0.37017018 -0.2696246 -0.09832417
0001a0 cd 4a 0a be 09 ad a2 be 5d 1c 61 bd 08 c2 36 bd
       -0.13505097 -0.3177264 -0.05495869 -0.044618636
0001b0 21 eb ee be 9d c8 02 be 4d 89 09 be c6 96 86 be
       -0.46663764 -0.1277184 -0.13431282 -0.26286906
0001c0 27 59 84 bd 9b 7e a7 be d3 56 82 be 15 1c a7 be
       -0.06462317 -0.3271378 -0.25456867 -0.32638612
0001d0 9a 38 0e be d6 48 98 be 17 6d 02 be 3d c2 22 be
       -0.1388878 -0.2974307 -0.12736927 -0.15894409
0001e0 31 50 53 be 6e 67 d2 be 05 50 8a be b1 2b d1 be
       -0.2063606 -0.41094536 -0.27014175 -0.40853646
0001f0 13 38 29 be e9 39 bd be f7 69 de be 17 dd 98 bd
       -0.16525297 -0.36958244 -0.4344022 -0.074640445
000200 d0 04 91 be 04 91 43 be 7b 0a fe bd 9b c3 e0 be
       -0.28323984 -0.19098288 -0.12404343 -0.43899235
000210 52 04 70 be 32 e4 cc be 88 83 be be 4f 72 b7 be
       -0.23439148 -0.4001785 -0.37209725 -0.35829398
000220 7d 41 e6 be 54 5b 98 bd 8c a3 bc be 14 6d 61 be
       -0.4497184 -0.074392945 -0.36843526 -0.22014266
000230 2c 47 f8 bd 8e 97 a5 be c3 0b 8d be fe ce ab bd
       -0.1212295 -0.3234219 -0.27548036 -0.0838909
000240 17 e6 13 be 85 29 df be e8 a9 ae be 47 16 53 be
       -0.14443241 -0.43586364 -0.34114003 -0.20613967
000250 24 6f 50 be 9b 8d 28 be 48 f0 db be cd 82 7a be
       -0.20354897 -0.16460268 -0.42956758 -0.24463959
000260 a8 94 7e bd f3 c6 6b be e9 94 90 be d6 d0 01 bf
       -0.06215349 -0.23025112 -0.2823861 -0.50709283
000270 2b 3e 58 be 42 c9 86 be 3b e0 98 be 86 3a 1d be
       -0.21117465 -0.26325423 -0.29858574 -0.15354356
000280 b1 f1 9b be 60 4b 00 be cf 83 58 be 6b be 8b be
       -0.30457833 -0.12528753 -0.21144031 -0.27293715
000290 3c 99 a5 be 68 96 78 be 39 0e b6 be e9 5b be be
       -0.3234347 -0.24276125 -0.35557726 -0.37179497
0002a0 44 4e 7b be 3c dc 2a be 19 c5 8e be b6 9d 52 be
       -0.24541575 -0.16685575 -0.2788475 -0.20567974
0002b0 55 5e 7b be b6 a8 b8 be 50 71 39 be c1 66 f3 be
       -0.24547704 -0.36066216 -0.18109632 -0.47539333
0002c0 04 64 6c bd bb 38 d4 be 11 cd 6c be f2 1b 8f be
       -0.05771257 -0.41449532 -0.23125102 -0.27951008
0002d0 90 09 df be d0 32 75 be 61 8d d7 be 63 91 00 bf
       -0.43561983 -0.23945165 -0.4210005 -0.5022184
0002e0 c1 14 1b be d3 6c b1 be 92 78 57 be 5d bc 2a be
       -0.15144636 -0.3465334 -0.21042088 -0.16673417
0002f0 97 10 71 be 9b 77 d1 be c2 ec ea be 52 e8 5e be
       -0.23541485 -0.40911564 -0.45883757 -0.2176831
000300 75 ac b8 be a2 d6 a3 be f8 cc 92 be a6 30 dd be
       -0.36069074 -0.3199969 -0.28672004 -0.43201178
000310 d7 11 9c be a1 19 cf be b3 f6 fc be 12 50 07 bf
       -0.3048236 -0.4044924 -0.49406967 -0.5285655
000320 ed ef 4d be 49 68 b5 bd e5 ac 12 be e9 8c 70 be
       -0.20111056 -0.088577814 -0.14323767 -0.23491253
000330 58 f5 01 bf 12 36 c6 be d1 b7 80 be cf 10 f4 be
       -0.5076499 -0.38713127 -0.2514024 -0.47669074
000340 ea f6 e1 be aa 41 b5 be 55 b5 8a bd e8 6d 0f bf
       -0.44133693 -0.3540166 -0.067728676 -0.5602708
000350 94 a5 60 be 52 0a 0a bf be 5f f1 bd d3 bb dc be
       -0.21938163 -0.53922 -0.117858395 -0.43112049
000360 cb d6 d9 be 18 c8 19 be fa 40 db be 12 42 9d be
       -0.42546687 -0.15017736 -0.4282301 -0.3071447
000370 f2 97 11 bf 2d d3 94 be 07 96 6d be e1 c0 27 bd
       -0.56872475 -0.29067364 -0.23201762 -0.040955428
000380 90 11 f0 be b9 ec f6 be 37 bd 3a be 09 a6 6e bd
       -0.468884 -0.4822748 -0.18236242 -0.058263812
000390 64 b6 ee bd b4 86 91 be 92 6d b6 be 1c be e4 be
       -0.11655882 -0.28423083 -0.3563047 -0.44676292
0003a0 95 ed 45 be 66 10 8d be 61 57 a0 be 0b 69 7b be
       -0.19328912 -0.27551574 -0.31316665 -0.2455179
0003b0 e8 7c 94 be c6 36 03 bf 84 7d 39 be 87 84 16 be
       -0.29001546 -0.5125545 -0.18114287 -0.14698993
0003c0 12 1d 9c be cc a5 32 be 36 26 db bd 6d cc 82 be
       -0.3049093 -0.17446059 -0.107006475 -0.2554659
0003d0 4b d2 21 be e1 14 bf be 1e 74 44 bd 6b 22 a3 be
       -0.15802877 -0.37320617 -0.0479623 -0.31862196
0003e0 84 d4 d5 be ce c6 e1 be d9 67 70 be 25 62 30 be
       -0.417637 -0.44096988 -0.23477115 -0.17224939
0003f0 53 58 22 be 28 11 7c be ba 4a 24 be 40 f2 5a be
       -0.15854006 -0.2461592 -0.16044131 -0.21381474

layers.1.weight f4 [256, 256]
000000 cd 1d 73 3e d1 0c 03 bd 9a 06 83 3e 09 dc f5 be
       0.23741837 -0.031994645 0.25590974 -0.48019436
000010 bf 98 8e be 15 36 26 bf 12 72 23 be 97 cc 40 be
       -0.2785091 -0.6492627 -0.15961483 -0.18828045
000020 ec fb 24 be 8e 1b 65 3e 8b 8b 22 3f 6b 3c ad be
       -0.16111726 0.22373793 0.63494176 -0.33835158
000030 74 d3 08 bc c2 e1 6b 3e 69 55 77 bd b1 04 0d bf
       -0.008351196 0.23035339 -0.060384188 -0.55085284
000040 48 d7 13 3e bc ad 66 be 69 3f d7 3e fc b9 62 be
       0.14437592 -0.22527212 0.42040566 -0.2214126
000050 9a 73 8b be 7a cf 3f 3e 50 0a 3c 3e a5 7b 39 3d
       -0.27236634 0.1873149 0.18363309 0.045283932
000060 16 c5 b0 3e 99 e2 8a be f5 81 1d bd e7 59 07 bd
       0.34525365 -0.27126005 -0.038454015 -0.033044722
000070 00 71 9a bd 60 38 88 be 6d 52 a5 3d 88 9f 57 3c
       -0.07541084 -0.2660551 0.08072362 0.013160594
000080 77 dd b0 be 16 48 c2 3e 82 24 f3 3d 84 66 48 be
       -0.34543964 0.37945622 0.11872198 -0.19570357
000090 27 23 11 3c f3 15 d2 3d 93 d5 8f be 75 b4 bf 3d
       0.008858479 0.10258093 -0.28092632 0.09360591
0000a0 2b ad be bd 23 4e e4 3d 4b de cd 3d 0a c1 33 bc
       -0.09310373 0.11147716 0.10052165 -0.010971317
0000b0 e9 ef 8f 3d f0 11 98 3e 84 2b 07 bd 9e ca 07 3e
       0.07028181 0.29701185 -0.033000484 0.13260886
0000c0 48 3f 86 bd 26 95 36 be ee ac 97 be a0 55 55 bd
       -0.06555039 -0.17830333 -0.29624122 -0.05208361
0000d0 6b 31 dc 3d ca 8d 85 be e0 5b 43 be 99 00 ab be
       0.10751613 -0.2608474 -0.19078016 -0.33398893
0000e0 39 87 3e be 87 f1 33 bf 42 2d 74 bc b3 88 1d be
       -0.18606271 -0.70290416 -0.014903368 -0.15384178
0000f0 f0 0a 54 be de fd b4 3d 52 74 bb 3e 75 1c 96 be
       -0.20707297 0.08837484 0.36612183 -0.29318586
000100 e8 67 dd 3b 3d 49 67 3e 81 9f 9d bd 0a 7a 3c 3a
       0.0067567714 0.22586532 -0.076964386 0.0007189816
000110 48 1a 4e be 6d 4f c9 be 54 33 3f 3e 4f d6 a9 be
       -0.20127213 -0.3931841 0.18671924 -0.33171317
000120 c8 84 98 3c dd 37 bc bc 6c b4 02 bf a7 1b cf 3d
       0.018618003 -0.022975856 -0.5105655 0.10112696
000130 04 c7 da be 81 50 b4 3e 93 ab 36 3e 45 85 64 be
       -0.42729962 0.3521767 0.17838888 -0.22316463
000140 0a 0c 88 bd 13 1e 71 be 18 49 81 3e 73 c4 af 3c
       -0.06642921 -0.23546629 0.2525108 0.021455979
000150 5a 49 25 be 8c 6c 2c 3e 48 d0 d0 3d 4d 43 45 3c
       -0.16141263 0.16838282 0.101959765 0.012039972
000160 d4 14 7a 3c 69 db ce 3d a7 ad 5b bd bc 6c e5 bd
       0.015263755 0.10100443 -0.053632405 -0.1120238
000170 9b 67 1f 3e ef 55 18 3e 4a bd 7f be 80 14 8c 3e
       0.15566866 0.14876531 -0.24974552 0.2735939
000180 80 4b d0 be ad fb fe 3d c1 54 1e be 87 7e 58 be
       -0.40682602 0.12450347 -0.15462019 -0.21142016
000190 b8 10 8e 3e 03 42 6e bd b5 75 b4 bd 28 ca 6a be
       0.2774713 -0.058168422 -0.08811513 -0.22928679
0001a0 78 b2 0c be 8a a4 ac bd 39 ea 4c bd ab 0c 5d bd
       -0.13739955 -0.08429821 -0.05002806 -0.05396716
0001b0 83 9f cb 3d d8 a8 4a 3e e8 eb 28 3e 9e 89 68 3e
       0.09942534 0.19790971 0.16496241 0.22708747
0001c0 f2 31 9a 3c 86 37 17 be 58 2b 56 be de ca af 3d
       0.018822644 -0.14767274 -0.20914972 0.08583616
0001d0 7c 96 65 3d 32 7a 37 be 1a 64 a9 bd c4 47 92 be
       0.056051716 -0.17917708 -0.08271046 -0.28570378
0001e0 2f 09 58 bd 33 d7 95 3d c9 47 95 bd d1 aa 54 3d
       -0.052743133 0.073164366 -0.072890826 0.051920716
0001f0 e7 51 94 3d 94 54 d5 3d f9 12 4a 3e 01 41 90 bd
       0.07242184 0.104165226 0.197338 -0.070436485
000200 d1 fc 6a 3e 40 0c f4 be e7 1a 6c be 0e 8f 43 bf
       0.22948004 -0.47665596 -0.23057137 -0.7639016
000210 29 1d 67 3e 5f 9e c3 3d b5 88 cf 3e 4d c6 1f be
       0.22569717 0.09551691 0.40533987 -0.1560299
000220 04 1d aa bc ed 84 af bc f9 94 19 3e 8d 2a 33 be
       -0.020765789 -0.021425689 0.14998235 -0.174967
000230 11 6c 13 3e 07 d8 1b 3d f6 f5 ef be 50 34 27 3e
       0.14396693 0.038047817 -0.4686734 0.1632855
000240 5c b3 3b be 05 4c da 3d ec 06 2c be 17 ba c6 3d
       -0.18330139 0.10659031 -0.16799515 0.097034626
000250 41 df 89 be ad dc 05 be 2b 50 ae be 5f 34 fb 3d
       -0.26928142 -0.13072462 -0.34045538 0.12265848
000260 3b 7c af 3e d8 18 77 be b2 76 63 3e 50 ba 30 bd
       0.34274468 -0.24130571 0.22213247 -0.04314643
000270 cd 3f 7d be 31 1d f4 be 83 96 e4 3e 2b 5c e2 bc
       -0.2473137 -0.4767852 0.4464608 -0.02763184
000280 e9 f8 c3 3d 81 b9 f6 be 6d 4c aa 3e 33 3b 1c 3e
       0.0956896 -0.48188403 0.33261433 0.15256958
000290 f9 5c 63 3d 57 77 d7 be de 8c ed bc f7 e2 33 3e
       0.055508588 -0.42083237 -0.028997835 0.17567049
0002a0 f3 4c d4 bd a9 81 e8 bc 12 02 96 be bd 1d 99 3d
       -0.103662394 -0.02838214 -0.29298455 0.07476375
0002b0 08 e9 52 3d b2 52 6d be a6 16 5d 3b ea 6b 34 bf
       0.051491767 -0.23176077 0.0033735423 -0.70477164
0002c0 7c 3a 55 3c 51 c2 aa bc 4d e5 ce 3d b1 14 a2 3e
       0.013014432 -0.02084461 0.101023294 0.3165641
0002d0 78 24 bc 3e a2 78 84 bd 76 a5 d8 bd 81 08 fc 3d
       0.36746573 -0.064683214 -0.10578434 0.123063095
0002e0 4f 6f 71 3e 3e 80 5d 3e 98 4b df 3c 91 e0 1a 3e
       0.23577617 0.21630952 0.027257726 0.15124728
0002f0 93 8e f6 bd a3 c2 f6 3d 25 fb f2 be 40 a8 a2 3e
       -0.120389126 0.12048843 -0.47457233 0.3176899
000300 f2 ba 44 bb 93 d1 2e 3e 29 de 71 bd 89 44 fa bd
       -0.0030018655 0.17072134 -0.05904976 -0.12220103
000310 dd 2d 88 be a0 f1 ad 3e 20 b4 35 be 38 3b 7d 3d
       -0.2659749 0.33973408 -0.17744493 0.061824054
000320 46 0d aa bd 01 87 2d be 89 89 bb bc cc 55 a0 bd
       -0.08303313 -0.16946031 -0.02289273 -0.078288645
000330 cd 21 f3 3d 56 88 e8 be 9f d3 f9 3d 3e 1f 7c be
       0.11871681 -0.45416516 0.12198567 -0.24621293
000340 60 c9 62 bc a6 30 b7 bc 50 6d 16 3e 6e 00 08 3e
       -0.013841957 -0.022362065 0.14690137 0.13281414
000350 4e 1a 3a 3e 2c 05 01 bf 61 29 a9 3d 25 2a 5d be
       0.18174097 -0.50398517 0.082598455 -0.21598108
000360 67 31 a3 3e 78 f7 95 3d 24 c2 ad 3d 2b cc 93 3e
       0.31873628 0.073225915 0.08484295 0.28866705
000370 00 48 9d 3e 60 78 1a bb 6d a1 04 3f 29 1f 98 3e
       0.30718994 -0.0023570284 0.51808816 0.29711273
000380 77 ef 7e be 80 d4 82 3e 87 06 ba be 44 e4 b2 bd
       -0.24896036 0.2555275 -0.36333105 -0.087349445
000390 6f 88 b5 3c 0f c5 ba 3d 0d e2 83 3e d4 43 8c 3e
       0.022159783 0.09119617 0.257584 0.273955
0003a0 c0 6c d0 3e 01 4a 56 3e 09 42 0b be 15 79 bc 3c
       0.4070797 0.20926668 -0.13599409 0.023006955
0003b0 0d 36 fb 3a 9c 4b 67 3e ca 9a 68 3e 52 9b a6 3e
       0.0019165889 0.22587436 0.22715297 0.32540375
0003c0 b5 fe 45 3e 86 7d a4 3e e0 72 75 be bb 08 57 bf
       0.19335444 0.32127017 -0.23969603 -0.83997697
0003d0 20 a2 ab be c2 ab 34 3d 72 0a 6f be 77 c7 30 3e
       -0.3352213 0.044109114 -0.23343828 0.1726359
0003e0 3b 7d 05 be 5d 3a e9 bd 98 a4 76 3e bd a1 03 be
       -0.13036053 -0.11388085 0.24086225 -0.12854667
0003f0 30 87 92 be 1e 23 7d be 91 04 97 bc d9 1c 11 3e
       -0.28618765 -0.24720427 -0.018434795 0.14171161

layers.1.bias f4 [256]
000000 c4 ef 9f 3d 37 1a 2f bc 1c 2b 0e be e9 f1 57 bb
       0.078094035 -0.010687402 -0.13883632 -0.0032950586
000010 98 a2 af bd 39 36 81 be 6f 70 ce be 48 f4 ca bd
       -0.08575934 -0.2523668 -0.40320155 -0.09909874
000020 22 dd a2 3e 1c b6 77 be 92 d5 5f 3e f7 d3 ab be
       0.31809336 -0.24190563 0.21858814 -0.33560154
000030 e3 a6 5b be 56 c0 65 be 23 16 20 bd 2b b9 c6 bd
       -0.21450381 -0.22436652 -0.03908361 -0.09703287
000040 43 9b 42 be 8c 05 aa bd 53 d6 73 be d2 e2 d6 be
       -0.1900454 -0.08301839 -0.23812227 -0.41969925
000050 30 18 ab bd fc f7 73 be 68 b0 04 be 1e bd 3c 3c
       -0.08354223 -0.23825067 -0.12957919 0.011519698
000060 25 78 e6 be 58 aa 7b bd 66 13 f3 bc a6 43 ab bc
       -0.45013538 -0.06144175 -0.029672336 -0.02090628
000070 35 4f 9e be 6a c3 60 3d b1 3b 96 be 8d 5e 04 3d
       -0.30919805 0.05487386 -0.29342416 0.032316733
000080 00 f2 23 3e 17 f8 15 bd 26 d8 26 3e 4e 43 27 3d
       0.16010284 -0.03661355 0.16293392 0.04083567
000090 6c 39 3d 3e 22 b4 23 be 10 95 76 3d 4e 24 a6 be
       0.18478936 -0.15986684 0.06020075 -0.32449573
0000a0 63 a5 bf bd 32 f2 36 be ff 6c 5e 3d 44 5a b8 be
       -0.09357717 -0.17865828 0.054303166 -0.36006367
0000b0 3e 40 8a bd 01 77 3c 3d c2 3d 69 be 69 63 f6 be
       -0.067505345 0.04601193 -0.22777465 -0.4812272
0000c0 bb 68 c5 3e 77 32 72 3e d1 4b 66 3e 1d 18 8e bd
       0.38556466 0.23652063 0.22489859 -0.06938193
0000d0 5d 97 f7 3b 64 cd 89 bd c1 e4 27 3e 9e 96 9b 3e
       0.0075558857 -0.06728628 0.16395856 0.3038835
0000e0 0e 2e 00 bd ea 9e 82 3e 72 e5 2f be d7 9c a6 bd
       -0.03129392 0.25511867 -0.1717737 -0.081353836
0000f0 2b 6b 76 3e 8c d8 de be 9b fa 60 bd c7 1c 0b be
       0.24064319 -0.43524587 -0.054926496 -0.13585196
000100 1c 49 6f be 92 a5 98 bd 57 0c 50 be dd 8a fe 3d
       -0.23367733 -0.07453455 -0.20317207 0.1242883
000110 e4 d1 2c be 71 95 80 3c af 31 b3 be 2d c7 66 be
       -0.16876942 0.01569626 -0.34998843 -0.22536917
000120 f3 f9 64 3d f4 af 49 be 6e 90 93 3d c0 74 6d be
       0.055902433 -0.19696027 0.07205282 -0.23189068
000130 e1 a0 d1 3d 7c 6a 88 bd 78 67 6c 3d 90 70 22 be
       0.10235763 -0.06660935 0.057715863 -0.15863252
000140 d1 42 0c be 2c 0d 57 be 41 b3 4e be cc 3b 5b be
       -0.13697363 -0.21001118 -0.20185567 -0.2140953
000150 50 33 fa bb 16 f0 af be ba 27 c8 3c f8 46 52 3e
       -0.0076355115 -0.3436286 0.024433006 0.20534885
000160 bd fb e3 ba a7 0e 81 be 52 4b 0f be dc 7a 75 be
       -0.001739375 -0.2520649 -0.13993576 -0.23972648
000170 ea bb 70 be 15 12 02 3d e7 54 16 3d cb 9b a4 3c
       -0.23509184 0.031755526 0.036702063 0.02009382
000180 cb dd a6 bd 89 95 3c bd f5 e0 ff 3d 4d b7 7e bd
       -0.081477724 -0.046041045 0.12494079 -0.062186528
000190 4e c3 ae bd 63 1f 28 be 91 53 2c be 12 34 17 3c
       -0.08533345 -0.16418223 -0.16828753 0.009228723
0001a0 c0 88 95 3e 93 f9 1a bd c7 6c 7c be 0f 36 76 be
       0.29205894 -0.03783567 -0.2465087 -0.24044059
0001b0 39 4b 0e be 9b b8 19 be 51 67 9f be e2 fa a6 bd
       -0.13895883 -0.15011828 -0.31133512 -0.08153321
0001c0 42 39 03 bf 70 c2 76 3b c5 e0 5c 3c 88 02 2e 3e
       -0.51259243 0.0037652515 0.013481324 0.16993153
0001d0 b9 cf 9e bd 21 6e cc bb ee 9d c0 bd 7e dd 41 be
       -0.07754464 -0.0062387143 -0.09405123 -0.18932149
0001e0 0a ba 0e be e4 ed 84 be 0d a0 32 bc d2 b5 d9 bd
       -0.13938156 -0.25962746 -0.010902417 -0.106303826
0001f0 a2 59 9f be 09 dd e4 bc cb 2d a3 3d 30 54 fb bd
       -0.31123072 -0.027937429 0.07967719 -0.12271917
000200 fb de 4f 3e a9 ab 7f 3d 76 24 e2 bd f4 a0 9c bc
       0.20299904 0.062419567 -0.110421106 -0.019119717
000210 37 92 1d be d1 25 ef 3c a0 db 03 3e ca ad 5c 3d
       -0.15387808 0.029192837 0.12876749 0.053876676
000220 6b cc 2b bd 3c 8d 55 be ce db 45 be 1c 8f f2 be
       -0.041942995 -0.20854658 -0.1932213 -0.4737481
000230 a0 45 26 3e 07 66 36 3e ef 4d 99 bd 03 22 c1 3d
       0.16237497 0.17812358 -0.07485568 0.09430315
000240 35 f4 26 be 85 3d 36 3e 16 69 06 bd 16 6e 30 3c
       -0.16304095 0.17796905 -0.03281506 0.010768434
000250 90 17 f9 be 62 93 8a be c1 a1 27 3e cc 11 10 3c
       -0.4865079 -0.2706557 0.16370298 0.008793306
000260 6b 6b bf bd 65 1b 06 3d f4 f4 f3 3c c8 76 85 be
       -0.0934666 0.03274097 0.029779889 -0.26067185
000270 58 38 a6 be 23 7a 6f be 21 0f 4d 3d 79 30 ba 3e
       -0.32464862 -0.23386435 0.050063256 0.36365107
000280 36 ef 19 be c7 f4 0f 3e ab 63 79 be 0a c4 5c 3e
       -0.15032658 0.14058219 -0.24354427 0.21559158
000290 2d f3 e5 bd 29 c3 58 3e 47 25 5a 3d f9 79 b6 be
       -0.11228023 0.21168198 0.053258207 -0.35639933
0002a0 ea 5c 96 be 0f 2d 78 be 17 8f 4c be 4f 2f 0a 3d
       -0.29367763 -0.24235938 -0.1997646 0.033736523
0002b0 00 ba 1d be 9e 4e a6 bb e7 b3 98 3e 2d 67 b4 bc
       -0.15402985 -0.00507529 0.29824755 -0.022021854
0002c0 b8 ea 71 be 14 72 3c 3d 9a 71 1e 3e ac 61 31 bd
       -0.23624694 0.04600723 0.15473023 -0.043306038
0002d0 10 43 c7 3d b7 ab 2c 3e 49 c9 82 3e 78 f5 4b 3d
       0.09729588 0.16862379 0.25544193 0.049794644
0002e0 c9 74 4e be 07 93 13 3e f8 aa 37 be 4b 25 c5 bd
       -0.20161738 0.14411555 -0.17936313 -0.09626254
0002f0 3f 2e 07 be c6 81 c6 3d c1 e9 ae 3e ff 01 bd 3d
       -0.13201235 0.09692721 0.34162715 0.09228896
000300 09 4e 84 be 3c 9a 9a 3d 4b a0 74 bd 16 a9 27 be
       -0.25840786 0.07548949 -0.05972318 -0.16373095
000310 6e 17 36 be 6b 64 cf 3d 95 2b 3e be 12 09 2a 3d
       -0.17782375 0.10126575 -0.18571313 0.041512556
000320 1b 3b 1a 3d b4 51 eb bc 50 ae 39 3e ca 2f d5 bd
       0.037654024 -0.028725483 0.18132901 -0.10409506
000330 bd 6c a2 be 31 84 ac be 84 9c bd be e4 ed ba bd
       -0.31723586 -0.33694604 -0.37033474 -0.09127405
000340 95 ac 0e 3e 5f 05 86 3d f3 b7 0e 3d 56 b5 fc 3d
       0.13933022 0.06543993 0.034843396 0.123392746
000350 3f 19 00 bd 35 88 11 3c 10 27 88 be e3 ec 3e 3e
       -0.031274077 0.008882572 -0.26592302 0.18645053
000360 ea d4 94 3d 6b e0 40 3e 26 6a ce 3d 07 2f f4 be
       0.07267173 0.18835609 0.1007884 -0.4769213
000370 aa 82 f8 be 30 fd 94 3d 18 1f b9 be 5b b1 4a 3d
       -0.4853719 0.07274854 -0.36156535 0.049485546
000380 81 fa fd bd 47 57 14 3e c1 85 6d be f8 0b 6c be
       -0.124012955 0.14486419 -0.23195554 -0.2305144
000390 21 34 d0 3d ea 5d c5 3c 66 6c 2c 3e 36 bf 4a 3c
       0.10166193 0.024092633 0.16838226 0.01237469
0003a0 e0 74 08 be 25 fb 10 3e 74 7a 6e bc cd 79 1a be
       -0.13325834 0.14158304 -0.014555562 -0.15085526
0003b0 23 19 5b 3e 7c 67 67 be 50 1d d9 3d 1f 11 2a 3e
       0.21396308 -0.2259807 0.10601294 0.16608094
0003c0 3b 9d 92 be bf dc 5f 3e 6c a8 00 be 4d b8 92 be
       -0.28635582 0.21861552 -0.12564248 -0.28656235
0003d0 6e b4 64 3e 65 ef 32 3c b5 57 de 3d 4b 38 9b bd
       0.22334453 0.010921334 0.108565725 -0.075790964
0003e0 c1 21 10 3e c7 ad 92 3e 11 a6 07 be 5b 4b f5 3d
       0.14075376 0.28648207 -0.13246943 0.119772635
0003f0 91 a1 8a 3e 14 e3 15 be 60 ee 91 be 5e fc 54 3a
       0.2707639 -0.14637405 -0.28502178 0.0008124764

layers.2.weight f4 [64, 256]
000000 b1 45 dc 3c 24 4c 08 be 00 00 8f 3d 14 dc 92 3c
       0.0268887 -0.13310295 0.06982422 0.017927207
000010 6c 1c eb 3d d2 5e 09 3e db 92 39 bd 52 04 ca be
       0.114800304 0.13415077 -0.045306068 -0.3945642
000020 c3 bc ca 3e 17 fe be 3d e3 6a 3e be 2e 46 46 3e
       0.3959714 0.093258075 -0.18595462 0.19362709
000030 72 cd 6e 3e 3f ef 8a 3d fb 6c f4 3c ae 34 90 3e
       0.23320559 0.06783914 0.029837122 0.2816519
000040 35 df 98 3e 60 f9 a8 be af b1 87 bc 91 f0 5d be
       0.29857793 -0.33002758 -0.016564218 -0.216738
000050 b5 ac d3 3c 05 f6 dd be 8c 38 73 bd 29 6e 8a bc
       0.025839189 -0.4335176 -0.0593801 -0.016898232
000060 6f 12 b2 bc 79 59 6b be 44 fb b9 be 71 04 89 bd
       -0.021737305 -0.2298335 -0.36324513 -0.066903
000070 ef a4 8f 3e 87 6e 9d 3c 89 e6 8b 3e e9 ed db bd
       0.28055522 0.019217743 0.27324322 -0.10738737
000080 8b 4a 39 be 17 a1 29 3e 95 64 74 3d 8b 4b 4b 3d
       -0.18094842 0.16565357 0.059666235 0.04963259
000090 27 c9 35 be ff b1 e6 3d 4c 3e 06 be 7d f1 4d 3e
       -0.17752515 0.11264419 -0.13109702 0.20111652
0000a0 ca 86 0f be 38 44 7e 3e 46 f0 33 3e c6 99 cc 3d
       -0.14016262 0.24830711 0.17572126 0.099902675
0000b0 92 23 13 bd 70 dc bd bd 0d 17 43 3d bc 6b 2e 3e
       -0.035922594 -0.09270561 0.047629405 0.17033285
0000c0 b5 14 18 be 52 be ad 3d 16 49 a4 bb 44 b4 ac 3e
       -0.14851649 0.08483566 -0.0050135953 0.33731282
0000d0 e2 21 06 3e 75 28 9a 3d 86 61 d6 3c fe cb 82 3c
       0.13098863 0.07527248 0.02616955 0.015966412
0000e0 14 4b 8c 3e 32 74 34 be cc 24 38 bc 65 ab 17 be
       0.2740103 -0.1762245 -0.011239242 -0.14811476
0000f0 70 5a c9 bd 45 d4 0e 3e 1d ef 2b 3e 7a 41 68 3d
       -0.09831703 0.13948162 0.16790433 0.05670307
000100 2a df 0a 3e 57 a6 1a bf 8f ac e4 3b da 3f 85 3d
       0.13561693 -0.60410064 0.0069785784 0.06506319
000110 c8 85 05 bc c3 7c cf be 1d cf f4 3e f2 b3 b3 3c
       -0.008149572 -0.40524873 0.47814265 0.02193639
000120 63 82 a3 bd 8f 51 df bd d9 4f b7 bd 83 c7 71 bd
       -0.07983854 -0.10904228 -0.089507766 -0.05902816
000130 36 f0 c4 3e 1b 91 f2 bd d4 ef 54 3c 9b 25 92 be
       0.38464516 -0.11844083 0.012996633 -0.28544316
000140 6a 34 31 bd 92 c0 ea 3e 12 9d 20 3e 17 48 85 bb
       -0.043262877 0.45850044 0.15684918 -0.0040674317
000150 ee 70 da 3d f1 b6 06 be 98 bc 58 bc 07 e0 9d be
       0.10666071 -0.13155724 -0.013228558 -0.30834982
000160 75 49 b4 3d 5d b1 b3 be e5 2e bb 3e 91 fa 5f be
       0.08803073 -0.35096255 0.36559215 -0.21872927
000170 02 ba 9d 3d a8 9c cb bc be 03 ca bd 6d ed 73 be
       0.07701494 -0.024854973 -0.09863995 -0.2382104
000180 78 7c 6b bd c7 84 6a be 32 a7 2e 3f f4 73 12 3d
       -0.05749175 -0.22902213 0.6822387 0.035755113
000190 95 c0 4d 3e 8b 18 84 be 69 82 2d 3e 00 92 8c bd
       0.20092995 -0.25799975 0.16944279 -0.06863785
0001a0 c0 50 8e bb cb 77 a8 bd f5 af e3 bd 08 f8 12 bf
       -0.0043431222 -0.08225974 -0.111175455 -0.57409716
0001b0 fe 5f 8f 3e 91 f7 3b bd 16 d2 e0 3d ba c0 58 3f
       0.28002924 -0.045890395 0.10977571 0.8466908
0001c0 c8 09 a3 be 4c 6d 06 bf 28 86 13 3e b8 4d 39 be
       -0.318434 -0.52510524 0.14406645 -0.18096054
0001d0 26 51 36 bd 96 cf 09 3f 26 b7 1e 3d 0c 44 08 bf
       -0.044510983 0.53832376 0.038748883 -0.5322883
0001e0 b3 f9 a3 be 29 7e 87 be 78 43 18 3d c3 ad 71 be
       -0.32026443 -0.2646344 0.03717372 -0.23601441
0001f0 dd 67 b6 3d d4 b8 e5 3e ca 7a 8e be 0b 5e 74 3d
       0.08906529 0.44867575 -0.27828056 0.05966
000200 1c 28 aa bb f5 76 21 be b1 01 9e be 27 76 a1 3d
       -0.0051927697 -0.15768035 -0.30860665 0.07883864
000210 97 b3 b8 be 9b 23 6c 3e ef 7d 15 be 7d 2c 16 be
       -0.36074516 0.23060457 -0.14598821 -0.14665408
000220 eb 9b 4f 3d 45 01 24 3e e5 12 01 3d 99 11 f8 3e
       0.050685804 0.1601611 0.03151216 0.48450926
000230 06 1c ad 3d ff b2 5d be a0 3d eb bd a9 cf 6b 3d
       0.08452611 -0.21650313 -0.114863634 0.057571087
000240 6f d2 96 bc 35 b0 56 be 96 fb 8c 3e bb 1a de 3d
       -0.01841089 -0.20965655 0.27535695 0.10844942
000250 fa e0 80 bd ef 8b 69 3e a2 6d 93 3e 52 3a 01 bd
       -0.06292911 0.22807287 0.2879458 -0.03154976
000260 9b 9f 9a be 42 d0 34 3e ea 23 bd 3d 6d 68 e6 be
       -0.30199894 0.17657569 0.09235366 -0.45001546
000270 0d 29 6d be f6 7b 18 3e 5b c9 b4 3c 69 c8 e4 bd
       -0.23160191 0.14891037 0.02206867 -0.11171038
000280 66 bc 9b be cf 55 e2 3d c8 3a ee bd cb 04 9b 3e
       -0.30417174 0.11051523 -0.116323054 0.30277094
000290 3d b5 e3 3c 2e 97 9b be 34 4d b5 3e 72 9a 9d be
       0.027796382 -0.30388778 0.35410464 -0.30781895
0002a0 47 20 06 3f 0e 92 15 3e 0a be c9 3e d8 c4 79 bd
       0.52393 0.14606497 0.394028 -0.06097874
0002b0 82 21 ff 3c 30 54 d1 bd cb c1 9a 3e 54 65 4d 3d
       0.031143907 -0.102211356 0.30225977 0.050145462
0002c0 cd 3d 7e be a6 d7 3c 3e 9e 4e 88 3d 18 1a cf 3d
       -0.24828263 0.18441638 0.0665562 0.10112399
0002d0 97 7d c8 3d 86 02 99 be 08 e6 0e 3e 83 5b cc be
       0.09789579 -0.29884738 0.13954937 -0.39913568
0002e0 3c f6 ed 3e 5a 5f 6c 3e 13 37 38 3d 29 ad 3d bc
       0.46476924 0.23083249 0.044974398 -0.011576929
0002f0 e9 fd 72 3d 23 38 06 3e 8e a4 0f bf 2b 35 22 be
       0.05932418 0.13107352 -0.56110466 -0.15840594
000300 a3 4b cb bd 1c 97 22 be d5 32 19 3e 81 e2 31 bd
       -0.09926536 -0.15877956 0.14960797 -0.0434289
000310 9f ea 94 bd a0 cd 4c 3d 7d 10 96 3d 2d 61 c8 3c
       -0.07271313 0.050000787 0.07327364 0.0244604
000320 b7 38 30 be 32 06 4d be bd cd 02 bf e9 a3 c2 bd
       -0.17209135 -0.20021895 -0.5109518 -0.0950392
000330 bf 0f 99 bc bc 28 34 3e 74 d2 a0 bd ec 14 10 3e
       -0.018684266 0.17593664 -0.07852641 0.14070481
000340 06 7b dc bd 5c 71 69 3d 36 28 63 3e 6a 79 f1 3d
       -0.10765652 0.056992874 0.22183308 0.11790736
000350 73 c9 0e bf de 0d 4f 3e 94 25 30 bd 81 42 9b 3d
       -0.5577614 0.20220134 -0.043004587 0.07581044
000360 d0 d9 2c 3d 2c 6d 67 3d b9 f7 24 bd cb fb ba 3c
       0.04219991 0.0565006 -0.04027531 0.022825142
000370 c1 a2 be be 6d 0f ac be 24 c8 c2 3d ca 85 04 3e
       -0.37233546 -0.3360552 0.0951083 0.12941661
000380 9d 9f ea 3c db 1d db 3d 46 ac df bd e1 d8 be 3d
       0.028640563 0.10699054 -0.109215304 0.0931871
000390 75 5b d3 bd c7 89 3d 3e 77 ca f6 3d 2d a6 88 3d
       -0.103201784 0.18509589 0.12050336 0.066723205
0003a0 f5 2b b4 3e ef f5 b9 be 69 d6 23 be ee 4f 4a 3d
       0.35189787 -0.36320445 -0.1599976 0.049392633
0003b0 62 ed 4e 3d a7 7e 42 be 80 38 2f bd a1 1d 5e 3d
       0.050519355 -0.18993627 -0.042778492 0.054227475
0003c0 39 88 82 3e 32 5e 18 3e 30 d3 ba 3c f5 11 32 3c
       0.25494555 0.14879683 0.02280578 0.010868539
0003d0 1a 7d c6 3b 4e b5 03 be 9b 0d c6 bd ce 13 03 3e
       0.0060573937 -0.12862131 -0.09670564 0.12800524
0003e0 80 99 d7 bd 6b b3 28 3e 8c 7b f4 bc b3 fd b1 3b
       -0.10527325 0.16474693 -0.029844068 0.0054318546
0003f0 44 df 98 bd 86 75 ae be fe b8 d3 bd 99 cd 68 be
       -0.074644595 -0.34074038 -0.10338019 -0.2273468

layers.2.bias f4 [64]
000000 9e 58 2d 3d bb 43 15 3e 24 fe ae bd 4a 02 25 3e
       0.04232084 0.14576618 -0.08544567 0.16114154
000010 7a ed 4d be b4 70 89 be 71 91 83 bd a6 47 dc bd
       -0.20110121 -0.26843798 -0.06424225 -0.10755853
000020 d1 69 51 3d 12 ce 89 3c 95 39 47 bb 4d 37 34 3d
       0.051126305 0.016821895 -0.0030399312 0.04399805
000030 f2 71 48 bd 39 3c 0f 3e c6 ec ab 3b d1 5e cc bd
       -0.04893679 0.13987817 0.0052467315 -0.09979022
000040 9d 7d 1d be 47 64 d3 bd 67 0c d6 bb 36 5a 0e be
       -0.15379949 -0.10321861 -0.00653224 -0.139016
000050 53 b6 2d 3e 07 a9 68 bb f1 ef 87 3d 4b 7a 02 3e
       0.16964082 -0.0035501139 0.06637562 0.12741964
000060 c0 88 c7 3d 87 19 34 be 4f 22 c4 3d 77 33 91 bd
       0.0974288 -0.17587863 0.09576856 -0.07089894
000070 82 c1 31 be c2 c6 07 bc 63 1b 9a 3e 0e 7d 84 3d
       -0.17358974 -0.008287134 0.3009902 0.06469165
000080 10 3d d8 bd 42 a5 52 be af d3 ae be e5 a1 51 3d
       -0.10558522 -0.20570853 -0.34145877 0.051179785
000090 5e d2 c7 bc 31 7f 29 3e cb b5 11 be b2 78 30 3e
       -0.024392303 0.16552426 -0.14229505 0.17233542
0000a0 03 42 da bd 08 b9 49 bd ca d1 bb 3c 43 c6 27 3e
       -0.10657122 -0.049248725 0.022927184 0.16384225
0000b0 eb 44 b6 3d f3 0c cd 3b e6 a5 1b 3e 4b 9e cd 3d
       0.08899864 0.006257647 0.15200004 0.100399576
0000c0 f5 0a 84 3e 23 c7 9b 3e 5b 73 df bc 21 33 dd bd
       0.2578961 0.30425367 -0.027276685 -0.10800768
0000d0 aa b6 98 3c db 89 ff 3d ba 6a d5 3b b5 c4 6b 3b
       0.018641789 0.12477466 0.006512967 0.00359754
0000e0 05 d6 95 3d dd 90 39 3d 4a e3 2c bd 77 7a cb 3d
       0.073162116 0.045304168 -0.042208947 0.09935468
0000f0 4f df 2b 3c 45 d7 12 bd 35 e6 78 bd fc 24 a2 3e
       0.010490253 -0.03584983 -0.060766418 0.31668842
