clip_encoder.pt (torch, 692666 bytes, 6 tensors)

layer1.weight f4 [256, 512]
0	0xbc454d4c	-0.012042355
1	0x3dcc5084	0.09976295
2	0xbd804464	-0.062630445
3	0x3d3252a2	0.043535836
4	0x3ca90221	0.020630898
5	0xbc9c233c	-0.01905977
6	0xbda40c7c	-0.08010194
7	0x3ccce75f	0.02501267
8	0x3d60353a	0.05473826
9	0x3d333695	0.043753225
10	0xbda73f00	-0.08166313
11	0x3bc11edb	0.005893571
12	0xbd1bc086	-0.0380254
13	0xbc8b603e	-0.017013665
14	0x3d6ac18c	0.057313487
15	0x3cdccd19	0.026953267
16	0x3bb8f7cc	0.005644774
17	0xbc7db8ae	-0.015485926
18	0xbdc517f7	-0.096237116
19	0x3c20b7c2	0.009809436
20	0xbce7bf89	-0.028289573
21	0xbce604eb	-0.028078517
22	0xbc4225f8	-0.011849873
23	0xbd3dc658	-0.046331733
24	0x3cf4d2d2	0.029885683
25	0x3cfd1264	0.030892558
26	0xbdef93b6	-0.116980955
27	0x3ca891a7	0.020577265
28	0x3c5bca82	0.013414981
29	0x3d8b8bc9	0.06813771
30	0xbd3aa540	-0.04556775
31	0xbd9a83ae	-0.07544647
32	0x3d28c129	0.041199837
33	0x3d0b0b70	0.033946455
34	0x3cd6473e	0.026157018
35	0xbda3e15d	-0.08001969
36	0xbdb51cff	-0.08843421
37	0x3de25c18	0.11052722
38	0x3c845729	0.016154842
39	0xbcb41e21	-0.021987023
40	0xbb96a615	-0.0045974352
41	0xbc967259	-0.018365072
42	0xbcf55874	-0.029949404
43	0x3ba56b76	0.0050482107
44	0xbda66b2f	-0.081259124
45	0xbbfde4fa	-0.0077482434
46	0xbba26ff9	-0.004957196
47	0x3bf18a8a	0.0073712515
48	0x3b99115d	0.0046712593
49	0xbd41e22c	-0.047334835
50	0xbd224a9b	-0.03962193
51	0x3d1f6d9c	0.03892289
52	0xbcf03f40	-0.029327035
53	0x3d188f8d	0.037246276
54	0xbd0d8d87	-0.0345588
55	0xbc1a2416	-0.009408018
56	0x3b4179a1	0.002952196
57	0xbd28869e	-0.041144006
58	0xbd22393b	-0.03960536
59	0x3d03ac80	0.03214693
60	0x3d07b7ec	0.033134386
61	0xbd380d0e	-0.044934325
62	0x3cde8f98	0.02716808
63	0x3b5aa023	0.003335961
64	0x3c879cd2	0.01655427
65	0xbda30373	-0.07959642
66	0xbb5449d5	-0.003239264
67	0xbd0243a5	-0.031802792
68	0x3c0bc25d	0.008530227
69	0xbba55b12	-0.005046257
70	0xbd591b52	-0.05300457
71	0x3c1bbdc6	0.009505695
72	0xbc91d9e6	-0.017804097
73	0x3c5d563b	0.0135093285
74	0xbd2ff533	-0.04295845
75	0xbc2a7063	-0.010402772
76	0x3d06d5ea	0.032918848
77	0x3be58e3b	0.0070054806
78	0x3d6bf9a0	0.057611108
79	0x3d93e47e	0.07221316
80	0xbdb4385b	-0.087998115
81	0x3c89a220	0.01680094
82	0xbd74f939	-0.05980799
83	0xbd8db5c6	-0.06919436
84	0xbc952335	-0.018205265
85	0x3c6f71a5	0.014614497
86	0xbc0d1337	-0.008610538
87	0x3d4cedaa	0.05003134
88	0x3c650147	0.013977355
89	0xbc1ab13f	-0.009441673
90	0x3d3dadd3	0.04630835
91	0xbd50f974	-0.051019147
92	0x3ce01e75	0.027358273
93	0x3ca95645	0.02067102
94	0xbd0e14f3	-0.034687947
95	0x3c04d3b9	0.008107119
96	0xbcb614f9	-0.022226797
97	0x3d419da2	0.04726947
98	0xbd4e3f71	-0.05035347
99	0xbca5e079	-0.020248638
100	0x3cc563a4	0.024095364
101	0xbdd7cdfd	-0.10537336
102	0x3ca86773	0.020557141
103	0x3d5312b7	0.05153152
104	0x3cf2ed9b	0.029654315
105	0x3ca2ff94	0.01989726
106	0xbc905ccc	-0.017622374
107	0x3c0b34a9	0.008496442
108	0x3d141840	0.03615594
109	0xbda35b9b	-0.07976457
110	0xbc266cc1	-0.010157765
111	0x391b539a	0.00014813096
112	0x3c1c7096	0.009548327
113	0xbc3c4f96	-0.011493584
114	0x3d6cf200	0.057847977
115	0x3d1b096e	0.03785079
116	0x3d1f2e85	0.038862724
117	0x3d2589c9	0.040414605
118	0xbc606b8a	-0.013697514
119	0xbda1de37	-0.07903712
120	0x3d0003e2	0.031253703
121	0x3b94c27d	0.0045397864
122	0x3c390cad	0.011294526
123	0x3dd242c2	0.10266639
124	0x3dd994cf	0.10624086
125	0x3c335f01	0.010947944
126	0x3d3e41ca	0.04644946
127	0xbd77d8e8	-0.060509592
128	0xbc2c78bd	-0.010526833
129	0x3d2ca710	0.04215151
130	0xbd1c5ab6	-0.038172446
131	0xbd30023f	-0.042970892
132	0x3d144124	0.036194935
133	0x3c48d76c	0.012258392
134	0xbd3b36a5	-0.04570641
135	0x3aa19bc4	0.0012329747
136	0x3c5ac169	0.013351777
137	0x3d91e283	0.07123282
138	0xbc0909a5	-0.008364116
139	0x3d172a16	0.03690537
140	0xbd06e0a2	-0.03292907
141	0x3c2e1758	0.010625683
142	0xbc98560e	-0.018595722
143	0x3d104bb0	0.03522843
144	0xbc8e2834	-0.017353155
145	0x3d134a39	0.035959456
146	0x3d7cfa2e	0.061762027
147	0x3ba993ef	0.0051751058
148	0xbd6a19e2	-0.05715359
149	0xbdb72473	-0.08942499
150	0x3d9f2ab0	0.07771814
151	0xbd3b273a	-0.045691706
152	0x3cde1241	0.027108314
153	0x3c6997fe	0.014257429
154	0xbde0e88b	-0.10981854
155	0xbd0cfe5f	-0.034422275
156	0x3d1dd439	0.03853247
157	0xb9031375	-0.00012500382
158	0x3a916638	0.0011093086
159	0x3c5044fe	0.0127117615
160	0xbc6da1e6	-0.014503932
161	0x3d02b435	0.03191014
162	0xbd73c2c4	-0.059511915
163	0xbafe0967	-0.0019381464
164	0x3d7d649b	0.061863523
165	0xbce312db	-0.027718952
166	0x3c527e2b	0.012847464
167	0xbd93aa5b	-0.07210227
168	0x3d038cc4	0.032116666
169	0xbc81a5fa	-0.015826214
170	0x3dad0c09	0.08449561
171	0x3d005d07	0.031338718
172	0xbb5d61e6	-0.0033780276
173	0xbd72abbb	-0.059245806
174	0xbda6a832	-0.081375495
175	0xbd4d402b	-0.050110023
176	0x3cc5b77a	0.02413534
177	0xbbca1046	-0.0061664907
178	0x3c7f51fb	0.0155835105
179	0x3d2fc4cd	0.042912293
180	0x3c22ef30	0.009944722
181	0xbd08008e	-0.033203654
182	0x3dca70a1	0.098847635
183	0xbc4aee1f	-0.012385874
184	0xbc8b9c02	-0.017042164
185	0xbc85c9ba	-0.016331542
186	0xbd1009bb	-0.03516553
187	0x3c34a3a5	0.011025344
188	0xbb150145	-0.0022736352
189	0xbd53c059	-0.05169711
190	0xbc832b45	-0.016011843
191	0x3d445435	0.04793187
192	0x3d1e1084	0.03858997
193	0x3daf1466	0.085488126
194	0xbd18f34d	-0.037341405
195	0x3ab7894d	0.0014002711
196	0x3c9ee659	0.019396948
197	0xbc621b3d	-0.013800439
198	0xbd1c79cc	-0.038202092
199	0xbd32955a	-0.043599464
200	0xbe015e1a	-0.12633553
201	0xbd557711	-0.052115504
202	0x3ba2882a	0.0049600797
203	0x3c5aa061	0.013343901
204	0x3cc314b6	0.023813587
205	0xbcd8ed78	-0.026480421
206	0x3d30b0d2	0.04313738
207	0xbdc0eb37	-0.09419864
208	0x3d52d296	0.05147036
209	0x3cfc46c7	0.030795468
210	0x3c717857	0.014738164
211	0x3cc11446	0.023569237
212	0xbd43ee49	-0.04783467
213	0xbcf126f6	-0.029437523
214	0xbd1def67	-0.03855839
215	0xb9ec9ec6	-0.00045131723
216	0x3c106e9f	0.008815437
217	0xbd6caa04	-0.057779327
218	0xbcd06c5c	-0.025442295
219	0x3d4ee753	0.050513577
220	0x3d95b959	0.07310743
221	0x3c9fba18	0.019497916
222	0x3ae91985	0.0017784095
223	0xbd800499	-0.06250877
224	0x3d0224d2	0.031773396
225	0xbcb16ce4	-0.021658368
226	0x3cc81a9d	0.024426753
227	0xbd06cd75	-0.032910783
228	0x3ab32ef5	0.001367061
229	0xbb813079	-0.003942546
230	0xbd75dd4d	-0.060025502
231	0x3caa127d	0.020760769
232	0x3cc034ec	0.023462735
233	0xbdbe0070	-0.09277427
234	0xbc875b5d	-0.016523058
235	0xbd52d737	-0.051474776
236	0xbd3a3487	-0.04546025
237	0xbc1cc6ad	-0.009568852
238	0xbd0966ea	-0.033545412
239	0xbd44c490	-0.04803902
240	0x3d63d581	0.055623535
241	0x3d8b3ff2	0.06799306
242	0xbd323b0e	-0.04351335
243	0x3c810e59	0.015753912
244	0xbd1b0a60	-0.03785169
245	0xbc0163b8	-0.00789731
246	0x3db37c9b	0.08764001
247	0x3d406de8	0.046979815
248	0xbd25eacf	-0.040507134
249	0xbc64b251	-0.01395853
250	0x3c885e9c	0.016646676
251	0xbd88830e	-0.06665622
252	0xbbb25ef7	-0.0054434496
253	0xbdad890a	-0.08473404
254	0xbc0f25ba	-0.008737022
255	0x3bce3d89	0.0062939567

layer1.bias f4 [256]
0	0x3da5f195	0.08102719
1	0xbe86d041	-0.2633076
2	0x3e3bde6c	0.18346566
3	0xbdb48cf7	-0.088159494
4	0xbcbbfc05	-0.02294732
5	0xbf0e650e	-0.5562295
6	0xbda2e2e3	-0.079534315
7	0x3db68e93	0.089139126
8	0x3e2680ff	0.16260146
9	0xbe0db7c3	-0.13839631
10	0x3df047f2	0.117324725
11	0x3da7ed7b	0.08199593
12	0xbeb59607	-0.35466024
13	0xbd8525c4	-0.06501344
14	0xbe2e4c28	-0.17021239
15	0xbea8964e	-0.32927173
16	0x3e6646af	0.22487901
17	0xbd07fcbd	-0.033200014
18	0xbe3020a5	-0.17199953
19	0xbdc574b8	-0.09641403
20	0x3dad7448	0.084694445
21	0x3e76f443	0.24116616
22	0x3eb4b9ae	0.35297912
23	0xbdbac54b	-0.09119662
24	0xbe0e9dcf	-0.13927387
25	0x3d362a31	0.04447383
26	0xbe6934c6	-0.22774038
27	0x3d57b3af	0.052661594
28	0x3d4ff53a	0.050770976
29	0xbe035826	-0.12826595
30	0x3d8ff9b7	0.07030051
31	0xbc1cc807	-0.009569175
32	0x3ddd06c8	0.10792309
33	0x3dcc81df	0.099857084
34	0xbd92af10	-0.07162297
35	0x3eb9e1c0	0.36305046
36	0x3c13b6a5	0.009015714
37	0x3e116266	0.14197692
38	0x3d2ba45c	0.041904792
39	0x3d060e37	0.0327284
40	0xbe826bed	-0.25472966
41	0x3e2a19f0	0.16611457
42	0xbbf687de	-0.007523521
43	0x3e2b7391	0.16743304
44	0x3ea020f4	0.3127514
45	0x3d759bd5	0.059963066
46	0xbd2518e5	-0.040306944
47	0x3d1a41bb	0.03766034
48	0x3dc1c691	0.09461702
49	0xbe4fbd63	-0.20287089
50	0x3d550ea1	0.052015904
51	0x3e23c21b	0.15992014
52	0xbe7a64aa	-0.24452463
53	0xbe67833a	-0.22608653
54	0xbe84c2c1	-0.25929835
55	0xbd90a6a7	-0.070630364
56	0x3e029f7f	0.12756155
57	0x3e204555	0.15651448
58	0x3ddfa5ea	0.109203175
59	0xbda5a93a	-0.08088918
60	0xbeb2317e	-0.34803385
61	0xbbb86402	-0.0056271562
62	0xbe21ed28	-0.15813124
63	0x3e498cd7	0.19682632
64	0x3d8f1a77	0.0698747
65	0xbefb0a20	-0.49031162
66	0xbea6a649	-0.3254874
67	0xbe3efbb5	-0.18650706
68	0xbd9c73de	-0.076392874
69	0x3f765f72	0.9623939
70	0x3e7f9bdb	0.24961798
71	0xbc7b6aa5	-0.01534525
72	0xbe480e59	-0.19536723
73	0xbea671e2	-0.3250876
74	0xbe6024b7	-0.21889006
75	0x3e141edc	0.14464897
76	0x3e4f20b5	0.2022732
77	0xbeacfef0	-0.33788252
78	0xbe740938	-0.23831642
79	0x3e414237	0.18872915
80	0x3c82eca5	0.015981982
81	0xbd77cbf5	-0.060497243
82	0x3f13e206	0.5776676
83	0xbe805ec0	-0.2507229
84	0xbfa07a53	-1.253733
85	0xbd34dc00	-0.04415512
86	0xbe2b1f94	-0.16711265
87	0x3e8ec419	0.27883986
88	0xbdf58ac0	-0.11989355
89	0x3ea31ade	0.31856436
90	0xbdd7e3d1	-0.105414994
91	0x3ee2cde5	0.4429771
92	0x3e70d124	0.23517281
93	0xbe9f1736	-0.31072396
94	0xbf1e6303	-0.6186983
95	0x3e7ebf07	0.24877559
96	0xbe18074b	-0.14846532
97	0xbdb441e1	-0.08801628
98	0xbd7125a9	-0.058873806
99	0x3e8d26b1	0.27568582
100	0x3e2991bb	0.16559498
101	0x3d5d0e16	0.05396851
102	0xbd521dbf	-0.0512979
103	0xbf8e5fc2	-1.1122973
104	0x3cbae507	0.022814287
105	0xbee827fb	-0.45343003
106	0x3e0799a2	0.132422
107	0xbd67b207	-0.056566264
108	0xbcc0f024	-0.023552008
109	0xbe223978	-0.15842235
110	0xbeda9ba8	-0.4269688
111	0x3c87248e	0.016496923
112	0xbe9a1a28	-0.3009808
113	0x3d44523d	0.04792999
114	0x3eb179cc	0.34663236
115	0xbdae78f5	-0.085191645
116	0xbed0f408	-0.4081118
117	0xbe30ec71	-0.17277695
118	0x3d87eae5	0.066365995
119	0xbebac588	-0.3647883
120	0x3e2babd7	0.1676477
121	0x3e84f69b	0.25969395
122	0xbd77a556	-0.06046041
123	0x3e278aad	0.16361494
124	0xbe03c1fe	-0.12866971
125	0xbecbf004	-0.39831555
126	0x3f81064e	1.0080049
127	0xbda03afb	-0.0782375
128	0xbd9e86ef	-0.0774058
129	0xbe8376f3	-0.2567669
130	0x3caee58f	0.021349696
131	0x3e73c9ff	0.23807524
132	0xbd9d59a9	-0.07683117
133	0x3e654225	0.22388513
134	0x3dd7aaa8	0.10530597
135	0x3e8572a8	0.26064038
136	0x3e66d9ec	0.22544068
137	0xbe17dadf	-0.14829586
138	0xbdf15c3c	-0.117851704
139	0x3d852616	0.06501405
140	0xbe338d7e	-0.17534444
141	0xbe58de37	-0.21178518
142	0x3c03670b	0.008020173
143	0xbdba7f26	-0.09106283
144	0x3df7edc6	0.121058986
145	0x3d2f4f6f	0.042800363
146	0x3d567cdc	0.05236517
147	0xbebaf98f	-0.36518523
148	0xbdcebfca	-0.100951746
149	0x3f5c8a5e	0.8614863
150	0x3d5188e4	0.05115594
151	0x3e8d6d3b	0.276224
152	0x3e494a33	0.19657211
153	0x3e787cd1	0.24266364
154	0x3e03df3f	0.1287813
155	0xbd956287	-0.07294183
156	0xbe570ea8	-0.21001685
157	0xbe49e205	-0.19715126
158	0xbd0ed6ed	-0.034872938
159	0xbd8e58fe	-0.06950568
160	0x3dd75dff	0.10515975
161	0x3f70dec0	0.9408989
162	0xbda48e72	-0.08034982
163	0xbdc9d92c	-0.098558754
164	0xbf13531f	-0.5754871
165	0xbd25aac5	-0.04044606
166	0xbef9f711	-0.4882131
167	0xbcab591d	-0.020916516
168	0xb9770db0	-0.00023560855
169	0xbd8cd518	-0.06876582
170	0xbdf1e259	-0.118107505
171	0xbbbae9d9	-0.0057041463
172	0xbe14da42	-0.14536384
173	0xbd9931b5	-0.07480184
174	0x3d37a4f5	0.04483505
175	0x3f721422	0.9456197
176	0xbcb52658	-0.02211301
177	0xbe3f211c	-0.18664974
178	0xbef570a0	-0.4793749
179	0xbe96a055	-0.294192
180	0xbd958fa9	-0.073027916
181	0x3e2d319b	0.16913454
182	0x3e04cb5e	0.12968203
183	0xbf2b244f	-0.6685228
184	0xbea0655a	-0.31327325
185	0xbe8c615d	-0.27418032
186	0x3d4a4cc1	0.049389604
187	0xbe8f8dd8	-0.28037906
188	0xbe87b4af	-0.26505038
189	0x3c02256a	0.0079434905
190	0x3e113621	0.14180805
191	0xbf70720c	-0.9392402
192	0xbcc36c42	-0.023855332
193	0x3d579f7e	0.052642338
194	0x3d1b999d	0.037988294
195	0xbda4f0ee	-0.08053766
196	0x3e864b2a	0.2622922
197	0x3e6d6642	0.2318354
198	0x3f05e8bb	0.52308244
199	0x3f103b95	0.56340915
200	0x3ecb88ed	0.39752904
201	0x3ca7da67	0.020489885
202	0xbb950fef	-0.0045490186
203	0xbeb5edfd	-0.35533133
204	0xbe200241	-0.1562586
205	0x3e445ca7	0.19175969
206	0xbde2c49a	-0.11072655
207	0xbd1eb9af	-0.0387513
208	0xbe0de507	-0.13856898
209	0xbecdbd5a	-0.40183526
210	0x3e0d5198	0.13800657
211	0xbe084f8c	-0.13311595
212	0x3d2637da	0.040580608
213	0x3e746efd	0.23870464
214	0xbc04cae2	-0.008105012
215	0xbe813d1a	-0.2524193
216	0xbe2feaa5	-0.17179354
217	0xbec7024e	-0.38868946
218	0x3df7c527	0.12098151
219	0xbe925922	-0.28583628
220	0x3ef3da0f	0.47627303
221	0x3d731803	0.05934907
222	0xbd9d5f00	-0.076841354
223	0x3dbb8a1c	0.09157202
224	0x3dab43e0	0.083625555
225	0x3e0a3780	0.13497734
226	0x3e875883	0.26434717
227	0xbe237ac6	-0.15964803
228	0xbd820361	-0.06348301
229	0x3e6776be	0.2260389
230	0xbdc165f1	-0.09443272
231	0xbde730cc	-0.11288604
232	0x3d846cd2	0.06466068
233	0xbc533335	-0.012890627
234	0xbe43f617	-0.19136845
235	0xbd579da2	-0.052640565
236	0x3dc2d7b3	0.095137976
237	0xbe607bbc	-0.21922201
238	0xbe93079a	-0.28716737
239	0x3f3ede60	0.7455807
240	0xbe017185	-0.1264096
241	0xbe2e4679	-0.1701907
242	0x3db8971e	0.09013198
243	0xbe25e360	-0.16200018
244	0xbd8955eb	-0.06705841
245	0x3ec3e272	0.38258702
246	0xbd869f7f	-0.0657339
247	0x3d388b9d	0.04505502
248	0x3eda6e3b	0.42662224
249	0x3d66ed3c	0.056378588
250	0x3ed09756	0.4074046
251	0x3e246ed1	0.16057898
252	0x3dae1225	0.084995545
253	0x3c8230cb	0.015892407
254	0xbe43278f	-0.19058059
255	0x3da4e536	0.08051531

layer2.weight f4 [128, 256]
0	0xbaa7c02d	-0.0012798362
1	0x3bf46ae8	0.0074590333
2	0x3bcb87f9	0.0062112776
3	0xbb4554c4	-0.0030110339
4	0x3ab0127e	0.0013433245
5	0x3d3039ab	0.043023746
6	0xbc5a2ecd	-0.013316822
7	0xbc26e091	-0.010185377
8	0xbb4cecd5	-0.0031269093
9	0xbbcc43fb	-0.00623369
10	0xbd2ffead	-0.042967487
11	0x3b8f9e4d	0.0043828846
12	0xbd89097a	-0.06691261
13	0x3ac057f7	0.0014674653
14	0x3c05793f	0.008146583
15	0xbc15d3ff	-0.009144782
16	0xbd921f90	-0.07134926
17	0x3b23aa3d	0.0024973296
18	0x3ad106bd	0.0015947443
19	0xbbb52270	-0.005527787
20	0xbc2c97de	-0.010534255
21	0x3bf62059	0.0075111804
22	0xbcf054ea	-0.029337365
23	0xb7d62d9d	-2.5532028e-05
24	0x3b95d537	0.0045725363
25	0x3b9682da	0.0045932354
26	0xbc1a0453	-0.009400445
27	0xb96c2d20	-0.00022523524
28	0xbbacb441	-0.0052705114
29	0x3bca361a	0.006171
30	0x3b70ad38	0.003672434
31	0x3ae2fa6e	0.0017317066
32	0x3c05d060	0.008167356
33	0xbb46a2fa	-0.0030309544
34	0x3c9912c7	0.018685712
35	0xbb51e0d7	-0.0032024884
36	0x3c9e6769	0.01933642
37	0x3d8663a1	0.065619715
38	0xbbde4118	-0.006782662
39	0xbc1b8842	-0.009492936
40	0x3c728fc3	0.014804783
41	0x3aed7b9b	0.0018118502
42	0x3d8c4040	0.06848192
43	0xbacadf30	-0.0015477892
44	0x3c557e98	0.013030671
45	0xbae3286c	-0.0017330772
46	0xbbf9b654	-0.007620612
47	0xbbf7e7c0	-0.0075654685
48	0x3c8c8f76	0.017158251
49	0x3befdedf	0.0073202695
50	0x3b907a20	0.0044090897
51	0x3d6da1b6	0.058015548
52	0xbb83a407	-0.0040173563
53	0xb9f90847	-0.00047499148
54	0x3bc9b75b	0.006155891
55	0xbcf21a26	-0.029553484
56	0xbbabb18e	-0.005239672
57	0xb841994c	-4.6157555e-05
58	0xbbe02235	-0.0068400153
59	0x3c113cbc	0.008864578
60	0xbd6aec12	-0.05735404
61	0xbb8a2f8c	-0.004217094
62	0xbbb49cd4	-0.0055118594
63	0xbb20c0d6	-0.0024529002
64	0xbbc56776	-0.0060242964
65	0xbbacaf49	-0.005269919
66	0xbbca7b1f	-0.006179228
67	0xba32dd7a	-0.0006823164
68	0xbbaef3a3	-0.0053391024
69	0x3a05a25a	0.00050977396
70	0x3d8b2105	0.06793407
71	0xbb999b31	-0.0046876897
72	0xbc06cc0a	-0.008227358
73	0xbad94bc8	-0.0016578371
74	0x3b13cbd8	0.002255192
75	0x3b5ad27c	0.0033389619
76	0x3b185e9b	0.0023249749
77	0x3e4affec	0.19824189
78	0x3be439ba	0.0069648894
79	0x3afee320	0.0019446351
80	0xba984127	-0.0011616097
81	0x3a156c30	0.000570002
82	0x3c3879e4	0.01125953
83	0xbb8c21df	-0.0042764987
84	0xbdfc2435	-0.123115934
85	0x3ab276e1	0.0013615751
86	0x390cd139	0.00013429382
87	0x3c109e9b	0.008826877
88	0xbb41c07b	-0.002956419
89	0x3d8c3cd5	0.0684754
90	0xbb8b7c08	-0.004256729
91	0xbd828d50	-0.063746095
92	0x3c62acbe	0.01383513
93	0xbb7adde8	-0.003827924
94	0x3da4ffb7	0.08056586
95	0xbb20a60e	-0.0024513039
96	0x3bc92547	0.006138477
97	0x3a283b94	0.0006417569
98	0x3a2aa112	0.00065089867
99	0xba29813e	-0.0006466097
100	0x3b47903d	0.0030450963
101	0x3c070a75	0.008242239
102	0x3ba0d339	0.004907992
103	0xbca8b2bc	-0.02059304
104	0xbc1f23bf	-0.009713112
105	0xbc44c0da	-0.01200887
106	0xbae519c9	-0.0017478998
107	0xba6ffa36	-0.0009154411
108	0xbbb1f9e6	-0.0054314015
109	0x3b5a6c6a	0.003332878
110	0xbd06a292	-0.032869883
111	0xbbb5921b	-0.005541099
112	0xbbe78255	-0.0070650973
113	0xbbb304d3	-0.0054632216
114	0xbc0094dd	-0.007847992
115	0x3b1ec6be	0.0024227346
116	0xbd847c33	-0.064690016
117	0xb946eb90	-0.00018970505
118	0xbbac074e	-0.005249894
119	0xbbbf40a6	-0.005836564
120	0xbd7969a2	-0.060891755
121	0xbbde5a00	-0.006785631
122	0x3c265a8c	0.010153424
123	0x3a5a34ba	0.0008323897
124	0x3bb6ae24	0.0055749584
125	0xbd14817c	-0.0362563
126	0x3e0ab2c0	0.1354475
127	0x3b317690	0.0027078725
128	0x3dd9d5fb	0.10636517
129	0xbe0b90cd	-0.13629456
130	0x3b8d7e71	0.0043180515
131	0x3bd8251f	0.006596222
132	0x3bd376e6	0.006453383
133	0x3af66da6	0.0018800988
134	0x3bfa32f2	0.0076354677
135	0xbcf6885c	-0.030094318
136	0x3bb5a187	0.005542937
137	0xb82d444c	-4.131002e-05
138	0x3bbfb353	0.0058502345
139	0xbc26c60f	-0.010179057
140	0xbddc0c00	-0.10744476
141	0xbb437bb0	-0.0029828362
142	0x3acc361e	0.0015580093
143	0x3dec3e80	0.115353584
144	0x3be30a44	0.006928714
145	0x3bb639f5	0.0055611082
146	0x3c71ddb1	0.014762328
147	0x3cddf409	0.027093904
148	0xbb2d2e96	-0.0026425472
149	0x3d82e8c5	0.063920535
150	0xbc61b019	-0.013774895
151	0xbb9201e3	-0.0044557913
152	0xbb24a9cc	-0.002512562
153	0xbd5dab8f	-0.05411869
154	0xb9ed4290	-0.00045253756
155	0xbbdc7f83	-0.006729068
156	0x3abf5447	0.001459726
157	0x3bf1bc5f	0.007377192
158	0xbb89a4b0	-0.0042005405
159	0x3bf6182e	0.0075102067
160	0xbba1b5f1	-0.004935019
161	0x3d2bd225	0.041948456
162	0xbbbf7602	-0.005842925
163	0xbbc87ee5	-0.0061186426
164	0xbd9d3720	-0.0767653
165	0x3afabdba	0.0019130029
166	0x3bff8c85	0.0077987337
167	0xbb4fc3bc	-0.003170236
168	0xbc1c2fcd	-0.009532881
169	0x3d115779	0.03548381
170	0x3b8835f4	0.0041568223
171	0xbc2b7338	-0.010464482
172	0xbb29fd10	-0.002593819
173	0x3c1d247d	0.009591219
174	0xbd9de86a	-0.07710345
175	0x3e1b2e5d	0.15154405
176	0xbc9ba4f2	-0.01899955
177	0x3b0b1ef4	0.0021228166
178	0xbdd20bb0	-0.102561355
179	0x3d798b60	0.060923934
180	0x3ba022ae	0.0048869466
181	0xbbf92799	-0.0076035974
182	0xbc152bb1	-0.009104655
183	0x3c6f572a	0.014608184
184	0x3d58bf94	0.05291708
185	0x3e02e572	0.12782839
186	0x3aeabbf9	0.0017908803
187	0x3b4eb9d4	0.0031543868
188	0xbbe8033b	-0.007080463
189	0xbb0f1cca	-0.0021837228
190	0x3989742f	0.0002621724
191	0x3d92c9ba	0.071673825
192	0xbbb0a55a	-0.005390805
193	0x3c23411f	0.009964257
194	0xb9c9f03e	-0.00038516702
195	0x3c3b2d93	0.01142444
196	0xbb8a2b89	-0.0042166156
197	0xbc3b2b01	-0.011423827
198	0xbda0b067	-0.07846146
199	0x3c1c1e82	0.009528758
200	0x3d9360fa	0.07196231
201	0x3d414fb0	0.047195137
202	0x3bbc6233	0.005749011
203	0xbe1110be	-0.14166543
204	0xba29ab6c	-0.0006472382
205	0x3bf95acf	0.007609702
206	0x3d29241f	0.041294213
207	0x3baaed37	0.0052162665
208	0x3b9223d0	0.0044598356
209	0xbca2ecb0	-0.019888252
210	0xbaf13f2a	-0.0018405665
211	0xb8558a9e	-5.0912255e-05
212	0x3c11b7ba	0.0088939015
213	0x3dc7eba4	0.09761742
214	0xbbbe2176	-0.0058023287
215	0x3baad88c	0.0052138027
216	0x3b3a8677	0.0028461495
217	0xbddd1dba	-0.107966855
218	0x3a99c5a0	0.001173187
219	0x3d6c6dcf	0.05772191
220	0x3b8e1bc7	0.0043368074
221	0xba0e12ce	-0.0005419672
222	0xbb05c65f	-0.0020412428
223	0xbc8b455f	-0.017000852
224	0x3c1d1088	0.009586461
225	0xbbad703c	-0.0052929204
226	0xbb5ef85c	-0.0034022545
227	0xba332ded	-0.00068351516
228	0x3b1461c3	0.0022641278
229	0xbb8b9b46	-0.0042604534
230	0xbcd80910	-0.026371509
231	0x3bb1ff2e	0.005432031
232	0x3bcec7fd	0.0063104616
233	0xba25d6cb	-0.0006326257
234	0xbbf1cf34	-0.007379437
235	0xbd7f5777	-0.062339272
236	0x3bb71f3b	0.0055884398
237	0xbb57c9fb	-0.0032926786
238	0x3b3a8aa4	0.0028463984
239	0x3d94181f	0.07231163
240	0xba88b862	-0.0010430927
241	0xbb71e958	-0.0036912765
242	0x3981dd4c	0.00024769676
243	0x3b0f5b25	0.0021874395
244	0x3c082122	0.008308681
245	0xbc2b7042	-0.010463776
246	0xb98125d9	-0.00024632996
247	0xba8ddf6d	-0.0010824032
248	0xbaef5e58	-0.001826237
249	0x3bb29dc7	0.0054509374
250	0xbce866e0	-0.028369367
251	0x3be06a31	0.0068485965
252	0x3e18f86c	0.14938515
253	0xbbfbbf63	-0.007682727
254	0xbb44e1ee	-0.003004189
255	0x3bf12ea6	0.0073602973

layer2.bias f4 [128]
0	0x3ddf42b1	0.10901392
1	0xbb9cc15a	-0.0047837915
2	0xbafbaee1	-0.0019201898
3	0x3b29a9ba	0.0025888518
4	0xb874853f	-5.829823e-05
5	0x3e236564	0.15956646
6	0xbb1a4c7f	-0.002354413
7	0xba8a71bc	-0.001056246
8	0xbcc5a307	-0.024125589
9	0x3bc708c7	0.0060740444
10	0x3b86d3d4	0.0041146073
11	0x3b0f1906	0.0021834983
12	0x3adb881f	0.0016748941
13	0x3c0ab6ba	0.008466417
14	0xbb50fb0e	-0.0031887922
15	0x3b256617	0.0025237852
16	0x3d1a5335	0.03767701
17	0xba53b3f9	-0.0008075829
18	0xbc86f417	-0.016473813
19	0xbbbb7581	-0.0057207947
20	0x3b8dd356	0.0043281717
21	0xbaabed4f	-0.0013116988
22	0xbcb1ddde	-0.02171224
23	0x3b004d51	0.0019577334
24	0xb9c07d43	-0.0003671442
25	0x3bbd2fbf	0.005773514
26	0x3a6f6a99	0.0009133011
27	0x3a2c6103	0.0006575735
28	0x3b73de98	0.0037211534
29	0xbd5bc313	-0.053652834
30	0xbb8a1b11	-0.0042146523
31	0x3c6cdf7b	0.014457579
32	0x3efcd6d8	0.49382663
33	0x3b81441a	0.003944886
34	0xbe154b44	-0.14579493
35	0x3bba7d18	0.005691182
36	0x3b7f6aee	0.0038973647
37	0xbd62d4b5	-0.055378634
38	0x3debbe3d	0.115108944
39	0x3d076a51	0.033060376
40	0x3ae1cdc7	0.0017227464
41	0x3e15f461	0.14644004
42	0x3b6276aa	0.0034555593
43	0xbc3b0d3e	-0.011416731
44	0xbb4c0e6e	-0.003113653
45	0xba190131	-0.00058366643
46	0x3b30bb0a	0.0026966953
47	0x3b1cdbda	0.0023934753
48	0x3b413a76	0.0029484308
49	0xbd14b7eb	-0.03630821
50	0x3b83e000	0.0040245056
51	0xba58aede	-0.00082658033
52	0x3dd46dbf	0.10372495
53	0x3a75a84e	0.00093710877
54	0x3a417cce	0.0007380963
55	0xbae8e687	-0.0017768898
56	0xba4172e8	-0.0007379488
57	0x3ae2b181	0.0017295332
58	0x3e14abe0	0.1451869
59	0xbb9e844e	-0.0048375493
60	0xbd5edaf8	-0.054408044
61	0x3b8cfbcf	0.004302479
62	0xba9c1889	-0.0011909168
63	0x3d3b8caf	0.045788463
64	0x3d591e4a	0.0530074
65	0xbcab835b	-0.020936659
66	0x3cb1850d	0.021669889
67	0x3aa0fa4b	0.0012281624
68	0x39111d35	0.00013839158
69	0xba89afad	-0.0010504626
70	0x3b45210c	0.0030079512
71	0x3da1c84a	0.0789953
72	0x3adb9f1f	0.0016755796
73	0x3b37975d	0.0028013804
74	0xbd638ed9	-0.055556152
75	0x3d1c7b57	0.038203564
76	0x3b7c0c64	0.0038459534
77	0x3a93eee3	0.0011286404
78	0xba99d13b	-0.0011735329
79	0xbcc782fc	-0.02435445
80	0x3b9d777f	0.004805505
81	0xbb1a230e	-0.002351943
82	0x3992977b	0.00027960152
83	0xbd073b72	-0.033015676
84	0x3aba6ac1	0.0014222489
85	0xbb451a3b	-0.003007545
86	0x3ab7c89f	0.0014021582
87	0x3c06803b	0.008209283
88	0x3ba24a5a	0.004952711
89	0x3d295ba7	0.041347172
90	0xbcf5b7b4	-0.029994823
91	0xbdb8c431	-0.090217955
92	0x3d5a1906	0.05324652
93	0xbad6948d	-0.0016371176
94	0xbb7dd0ad	-0.0038729117
95	0x3b55924f	0.0032588427
96	0xbb53e844	-0.0032334486
97	0x3a5e6226	0.0008483253
98	0x3cedde10	0.029036552
99	0xbc0f9da7	-0.008765615
100	0x3cf295da	0.02961247
101	0x3abf61d6	0.0014601301
102	0x3dd8158f	0.10550987
103	0xbd1daf0d	-0.03849702
104	0x3b14d3e2	0.00227093
105	0x3ca0f7e8	0.01964946
106	0x3d211b10	0.03933245
107	0xbbfe2f27	-0.007757086
108	0xbb925736	-0.0044659628
109	0x3c95a8b7	0.018268926
110	0x3c4e1ee6	0.012580609
111	0xbc084fa9	-0.008319774
112	0xb92f9067	-0.00016743095
113	0xba5f0398	-0.00085073104
114	0xbe38e438	-0.18055809
115	0xbe012d07	-0.12614833
116	0xbd14c383	-0.036319267
117	0x3d746b83	0.059672844
118	0x3aca3d52	0.0015429652
119	0x3dc3d9c1	0.09563018
120	0xbd957e48	-0.07299477
121	0x3b94df7f	0.0045432444
122	0x3aaf8a48	0.0013392651
123	0x3a823e97	0.0009936866
124	0xbd49b835	-0.04924794
125	0xbab914ee	-0.0014120617
126	0xbb5cdd35	-0.0033701186
127	0xb99d7111	-0.00030029615

layer3.weight f4 [64, 128]
0	0x3c5104b5	0.01275747
1	0xbb3db5f5	-0.0028947566
2	0xbb9a9b57	-0.004718225
3	0xbbb88b08	-0.005631808
4	0x3b6e2c67	0.0036342384
5	0xbc235d27	-0.00997094
6	0xbb826768	-0.003979612
7	0xbb213d65	-0.0024603244
8	0x3d07ce28	0.03315559
9	0xbc0eedaa	-0.008723656
10	0x3a1a9fab	0.0005898426
11	0xbb98e6cd	-0.0046661855
12	0xbbb393bc	-0.005480258
13	0x3b55ddd6	0.0032633445
14	0x3bfbc297	0.007683109
15	0xbb92f0c5	-0.0044842684
16	0xba5b1f2d	-0.00083588326
17	0x3b1bf6f0	0.002379831
18	0x3b4a37a3	0.0030855916
19	0xbde31edd	-0.11089871
20	0xbab0121c	-0.0013433131
21	0xbaeca5ea	-0.0018054817
22	0x3c147fee	0.009063704
23	0x395b849f	0.00020934873
24	0x3a7e7dca	0.0009708075
25	0x3a4a41db	0.00077155017
26	0xba77e396	-0.0009456215
27	0x3b40872e	0.0029377448
28	0xbba60c7b	-0.0050674058
29	0xbabd3512	-0.0014435372
30	0xb8c6d0eb	-9.48029e-05
31	0xba42e352	-0.0007434386
32	0x3e5f49bc	0.21805471
33	0xbbbda5c0	-0.005787581
34	0x3d937bfb	0.07201382
35	0xbbbddea1	-0.0057943617
36	0x3a55d3a1	0.00081568403
37	0xbb8bc698	-0.0042656176
38	0x3db2ed1c	0.08736631
39	0x39a31765	0.00031107213
40	0xbc2d69d3	-0.0105843125
41	0x3d823b84	0.06359008
42	0xbbe4f66a	-0.0069873827
43	0x3d48e489	0.049046073
44	0xbb922bf7	-0.0044608074
45	0x3ac27cf1	0.0014838261
46	0xbba8a94c	-0.005147135
47	0xbc12d6fc	-0.008962389
48	0xbb76bcf7	-0.0037649253
49	0xbe81fd76	-0.25388688
50	0x3c59d2b1	0.013294862
51	0x39c42a4c	0.00037415547
52	0x3d306cd5	0.04307254
53	0x3b4613e0	0.0030224249
54	0x3adeb8ef	0.001699237
55	0x3aae43df	0.0013295374
56	0xbb2a2573	-0.0025962263
57	0xba71ddcd	-0.00092264713
58	0x3c9a3cfe	0.018827911
59	0xbb041889	-0.0020156226
60	0x39a35612	0.0003115391
61	0x3c086cc7	0.008326716
62	0x3b269a1c	0.0025421446
63	0x3c09af7c	0.008403655
64	0xbae640cd	-0.001756692
65	0x3aa4fd66	0.0012587726
66	0x3bbbfe10	0.0057370737
67	0xb9fdb5cf	-0.00048391378
68	0xb985b18e	-0.00025500025
69	0xbb4e40a2	-0.003147163
70	0xbaf2fd75	-0.0018538671
71	0x3bf48d9c	0.00746317
72	0xbb4aecc1	-0.003096387
73	0x3a9dc2a9	0.0012036163
74	0xbc36f5ad	-0.011166972
75	0x3ae4168b	0.0017401738
76	0x3b8f3bac	0.004371127
77	0xba7ba611	-0.0009599636
78	0xbb5d0490	-0.0033724643
79	0xbb5a8b1f	-0.0033347083
80	0xbaa81ca7	-0.0012825922
81	0xbb1f4714	-0.002430384
82	0x3b8e8f6e	0.0043505942
83	0xbb41360f	-0.0029481684
84	0x3b1267ea	0.002233977
85	0x3b2ef297	0.0026694888
86	0xbbde89c3	-0.006791325
87	0xbb0054fe	-0.001958191
88	0x379b3bb4	1.8505241e-05
89	0x3caadbdb	0.020856788
90	0x3b456ce7	0.0030124725
91	0x3d828ed7	0.06374901
92	0xbbc8a538	-0.0061232112
93	0xbbd9bbe5	-0.006644713
94	0x3bc4de60	0.0060079545
95	0xbbb5d9b6	-0.005549635
96	0x3b3da2f6	0.0028936244
97	0xbb21af27	-0.002467105
98	0xba72d793	-0.00092636904
99	0xbba83390	-0.0051331
100	0x399256cc	0.0002791196
101	0x3b47e469	0.0030501133
102	0xbb873de5	-0.0041272514
103	0xba42420b	-0.0007410354
104	0xbb9315b6	-0.004488672
105	0x3b54e75c	0.0032486534
106	0x3b8f8e2f	0.0043809633
107	0xbb2881bb	-0.002571209
108	0x3ab14106	0.0013523407
109	0xbbe073c3	-0.0068497374
110	0x3b09fbba	0.0021054582
111	0xbb57049e	-0.0032809149
112	0x3b567d5c	0.0032728529
113	0xbb704e75	-0.0036667858
114	0xbe163f58	-0.14672601
115	0x3d85cd5d	0.065333106
116	0x3a035e08	0.0005011265
117	0xbb03d6f0	-0.0020117126
118	0xbaa65ac8	-0.001269185
119	0xbb9cf1bb	-0.0047895587
120	0x3b1e1673	0.0024122267
121	0x3b315b87	0.0027062611
122	0xbac07308	-0.001468272
123	0xbab8c755	-0.0014097492
124	0xba84abf7	-0.001012205
125	0xbba10265	-0.0049136155
126	0x395410c7	0.00020224146
127	0xbaa8e3b5	-0.0012885245
128	0xbc02c1cf	-0.007980778
129	0xbb816b12	-0.0039495314
130	0xbaad9bd9	-0.0013245299
131	0xbb0430f6	-0.0020170785
132	0xbb795d7d	-0.0038050108
133	0x3e273480	0.16328621
134	0x3b7d6600	0.0038665533
135	0xbb5ce913	-0.003370826
136	0xbbd2894f	-0.00642506
137	0x3bba79ad	0.0056907744
138	0x3a21e3c5	0.0006175603
139	0x3adacd2b	0.0016693225
140	0xbb66d8a3	-0.003522434
141	0xbc1c9c67	-0.009558774
142	0x3b03ed14	0.0020130323
143	0xb9b18967	-0.00033862444
144	0xbbd0fca7	-0.0063777748
145	0x3ca108a1	0.019657435
146	0xbae47462	-0.0017429704
147	0xbd2f69cd	-0.04282551
148	0x3b044a4d	0.0020185888
149	0x3b325eda	0.002721718
150	0x3cbdcec5	0.023169884
151	0xb8b1a594	-8.470859e-05
152	0x3a2bd509	0.0006554877
153	0xbc786ef9	-0.015163177
154	0x3b730536	0.0037081963
155	0xbac373f2	-0.0014911874
156	0x3c0173c1	0.007901133
157	0xba5f167c	-0.00085101253
158	0xbb75b5a2	-0.0037492295
159	0xbc2344f0	-0.009965166
160	0x3d708b8d	0.058726836
161	0x3a978c26	0.0011562153
162	0x3e32a404	0.1744538
163	0x3ac12e4e	0.0014738531
164	0x37f6cc79	2.94207e-05
165	0xbabbe2fa	-0.0014334612
166	0x3d1e97ca	0.038718976
167	0x3bffa992	0.007802197
168	0xbc4de595	-0.012566944
169	0x3bf2460e	0.007393605
170	0x3bc8b5d1	0.00612519
171	0xbd61ab9b	-0.055095296
172	0x3a819f98	0.0009889482
173	0xbae1ef53	-0.0017237462
174	0xbbeea991	-0.0072833975
175	0xbb47b5f4	-0.0030473443
176	0x3ba9df94	0.0051841233
177	0xbaf95862	-0.0019023533
178	0x3c6dd498	0.014516018
179	0xb986e67c	-0.00025730196
180	0x3e23cd6c	0.15996331
181	0x3b44dc26	0.0030038445
182	0xbbf79b2d	-0.00755634
183	0xba0190b0	-0.00049425196
184	0xbc1d8a8b	-0.009615551
185	0x3baaeccb	0.005216216
186	0xbe0636bf	-0.13106821
187	0xba09c029	-0.00052547693
188	0x3c8aaf3d	0.016929263
189	0x3b48bf2f	0.0030631532
190	0xbb856142	-0.004070432
191	0x3c349b34	0.011023331
192	0xb9d6e5a2	-0.0004098835
193	0xb9604c09	-0.0002139063
194	0x3aea488a	0.0017874402
195	0x3b842860	0.0040331334
196	0xbb28d61c	-0.0025762385
197	0xba8259cb	-0.0009944973
198	0xbba70638	-0.005097177
199	0x3cd6f725	0.026240895
200	0x3b963429	0.0045838547
201	0x39712808	0.00022998464
202	0xbb22597b	-0.0024772573
203	0xbcaed790	-0.021343023
204	0xb95eb24d	-0.00021237992
205	0xbb370a79	-0.0027929826
206	0xbbb22fae	-0.005437813
207	0xbc006f6b	-0.007839064
208	0x3b89c435	0.004204298
209	0xbb601957	-0.0034194791
210	0x3b05c0e6	0.0020409166
211	0x3b683e14	0.0035437392
212	0x3a13c1f9	0.0005636509
213	0xbb94cf7e	-0.0045413366
214	0x3b0d4f14	0.0021562027
215	0xbbc52ebd	-0.0060175345
216	0x3c0be2c5	0.008537953
217	0xbe00d545	-0.12581356
218	0x3bb5f80f	0.0055532525
219	0xbbe2cc53	-0.00692133
220	0xbcd56271	-0.026047917
221	0xbba60c45	-0.0050673806
222	0x3aa9c50f	0.0012952405
223	0xbb85798c	-0.0040733274
224	0x3bf6eafd	0.007535337
225	0xba7c3fe0	-0.0009622555
226	0xbb80e89c	-0.003933979
227	0x3c02cd2b	0.007983486
228	0x3cd60264	0.026124187
229	0x3c8ab9e7	0.016934348
230	0xbbecc0eb	-0.007225146
231	0xbbc38f56	-0.0059680147
232	0xbbd247e1	-0.00641726
233	0xbbb9bf39	-0.0056685475
234	0x3c72d230	0.01482062
235	0xbb2521fd	-0.002519726
236	0xbbc29cca	-0.005939101
237	0xbc73392c	-0.014845174
238	0x3cb2faa3	0.021848029
239	0xbb0a295e	-0.0021081786
240	0xbaf28012	-0.0018501303
241	0xbb21051e	-0.00245697
242	0x3e228745	0.15871914
243	0xbe141602	-0.1446152
244	0x3a8a8089	0.0010566871
245	0xbc0ed103	-0.008716824
246	0x3a44d11d	0.0007507967
247	0xbd22e45c	-0.03976856
248	0xbc475825	-0.012167011
249	0x3a8a70df	0.0010562203
250	0xbb8bc9ce	-0.0042660004
251	0x3b473708	0.0030397791
252	0x3c69ff59	0.014282071
253	0xbb4ba176	-0.003107158
254	0x3ab23e1a	0.001359883
255	0x3b7a84d7	0.0038226151

layer3.bias f4 [64]
0	0x3be075e2	0.00684999
1	0xba0b7daf	-0.00053211575
2	0x3b52c5cc	0.0032161353
3	0x3a8a7691	0.00105639
4	0xba8a1172	-0.0010533764
5	0xbbf55670	-0.007487111
6	0xb97d7f2f	-0.0002417534
7	0x3b8a35e3	0.0042178496
8	0xbb649489	-0.0034878573
9	0xbb8464bb	-0.0040403283
10	0xb95c4810	-0.0002100768
11	0xbaeb41c5	-0.0017948678
12	0x39365930	0.00017390097
13	0x37c873c1	2.389576e-05
14	0xba9d2115	-0.0011988009
15	0x3a8c10b2	0.0010686128
16	0xbb3d584d	-0.0028891743
17	0x3adf64bd	0.0017043572
18	0x3a849fb2	0.0010118394
19	0x3a4ad12d	0.0007736858
20	0xbb0b731c	-0.0021278327
21	0x3b173c85	0.0023076844
22	0xb9b9c640	-0.00035433657
23	0xba6f7250	-0.00091341604
24	0xb9b9dee2	-0.0003545201
25	0x3889dd03	6.573836e-05
26	0x3b1c206d	0.0023823038
27	0x3a40fabc	0.0007361581
28	0x3b4b89de	0.0031057517
29	0xbc4e399e	-0.012586979
30	0x3c7847f3	0.015153873
31	0x3a554c97	0.0008136718
32	0xbb660dfc	-0.003510355
33	0xba776b65	-0.0009438305
34	0x3b6e0e18	0.0036324318
35	0x3b80340b	0.003912454
36	0x3b00b3e3	0.001963847
37	0xba0df5c0	-0.0005415343
38	0xb9525dcc	-0.00020062103
39	0xbbee46b4	-0.007271612
40	0xba9e9e19	-0.001210156
41	0x3a2bc39d	0.0006552281
42	0xbc25c444	-0.010117594
43	0xbb8e75c3	-0.0043475344
44	0x3a28f6d4	0.00064454717
45	0x3b46b219	0.0030318557
46	0xbaa8a15e	-0.0012865474
47	0xbb648a9f	-0.0034872664
48	0x3a811b9b	0.0009850146
49	0x3a8c116b	0.0010686343
50	0xbae76ccb	-0.0017656324
51	0xbb23aa40	-0.0024973303
52	0xbb336181	-0.002737135
53	0xbb7c6fc4	-0.0038518766
54	0x3c788aac	0.015169781
55	0x3a875267	0.001032424
56	0x3a2614d5	0.00063355017
57	0xbb85ccb0	-0.0040832385
58	0xbc1f96c5	-0.009740536
59	0xbcc32085	-0.023819217
60	0x3bdc071f	0.006714716
61	0xbaa0f6bb	-0.0012280563
62	0x3bd6eb25	0.006558793
63	0x3986290c	0.00025589054
