latent_decoder.pt (torch, 694478 bytes, 6 tensors)

layer1.weight f4 [128, 64]
00000000: 42b2 3c3b 01a5 35bb 353a 9d3b 0e69 03bb
00000010: 4ad5 2dbb 914e 123c 711c 86bb e404 f6bb
00000020: 9215 493b 423f 313c fa3e 06bc 6618 9dba
00000030: 40ff 4bbc e148 f9ba 25fd 713a 5990 0f3c
00000040: 2825 95bb de2b fa3b db6a 5fbc 8fcc 16bb
00000050: e2bd 48bc a91d e9ba b04a 913b 173b 92bb
00000060: 0bfe 133c 6282 39bc 57cd a13b 643a e73b
00000070: 5d27 88ba 8655 fa3b 3c95 2a3c 7edd 4c3c
00000080: 45f3 9d3b 0b09 a2bc 698f 05bb cde4 03bc
00000090: 4d8b e83b 9d90 03bc 2f67 e9bb 6fd6 f0bb
000000a0: effd 2f3c 5ab5 03bc 4906 033c fedd 583d
000000b0: 6d51 133c b676 0f3c e1dd 52bc 4f14 1aba
000000c0: 7e38 4e3c ccf9 1ebc ea8d a9ba 74dc 64bb
000000d0: b3ac 9cbc 8adc 853b b955 58bc e988 cfbb
000000e0: 3d6e 523b 6cab be3b fd88 ff3b 16f1 f1bb
000000f0: c4cd c0bb 7175 273a 8ef1 d5ba b145 0fbc
00000100: 8be0 d2bb 1245 0d3c 4cc8 81bb e518 e43c
00000110: 47b8 99bb 783b 25bb bf1c 953c 13de 113c
00000120: 9083 7ebb df0e 94bb 160c 33bc 3408 63ba
00000130: f5ab 40bb dc21 933b 580f dbba 8677 8fbb
00000140: b9bc 843b d3e7 063c 5f12 f93b 5766 a8bc
00000150: 8a23 a43b b829 b9bc c5f2 d6bb b831 9dbb
00000160: d301 a3bb c509 e6ba 8235 f43a 5c9f f03b
00000170: b38e 53bb cf16 8e3b ea34 11bb cfee 3a3c
00000180: 0bf2 62bc 2f05 65bb 3084 d4bb a6e6 913c
00000190: 8e40 fcba 805d b5ba 6e1c 86bc 5b20 84bb
000001a0: 1253 213a 5e1b 243b 239c 2ebc 5476 313d
000001b0: 5b9e e0ba c0d5 d8bb 9bfa 723b 552b 873c
000001c0: a549 08bc a2e0 9c3c 2cfa 393c 07de 68bb
000001d0: 3997 423c 4e5c a33b 5d53 af3b 9651 a43c
000001e0: 5639 71bb 3fc5 57bb 8e88 1cbb 9b0c 043c
000001f0: 9167 88bb 34ac 563c 0047 9dbb 00da ab3b
00000200: bae7 19bd 662f 2e3d 7b9e afbc e9bb d23b
00000210: cb75 febb 5c42 893b d1a6 f53b c8b0 523d
00000220: f5d0 913c 587f e13d 5bcd d33b cd39 fcbc
00000230: f43f 7c3d eb0b 83bd 7d65 64bd 715d c53c
00000240: 116b a7bd 6b44 0cbd 7563 b93c 5372 1fbd
00000250: 391b 84bc 17bb 25bd fc73 85bc 293f febb
00000260: 50f2 c83c c4eb 843c f281 053d 1698 b9bc
00000270: b4aa 3d3c 2948 a1bc 8ba8 c43d 87e8 1abc
00000280: f1de 5b3a 6c59 4e3c ea2b 9dbc 8808 b2bb
00000290: 57b7 e4bb 56bd f1bc 50db 2b3b fd81 6fbd
000002a0: 4808 453d 749c 58bd e893 f53c bca7 cfbb
000002b0: 88ee 2f3d 93c5 183d a034 053d c010 613c
000002c0: 7fa8 823b dfe4 f53c e782 69bc 7a3d 4b3c
000002d0: c841 083d 6d2a efbc 1526 af3c a26c c2bc
000002e0: 63ca fbbc 9aee cb3c 9ac9 323d 73ae 503d
000002f0: 8fa7 993d b766 343c f0bb 16bc fa1f 363c
00000300: bc4b e2ba 03e1 c7ba 8a82 213c f78d 0eb9
00000310: 1939 87bc 060f 78bc d3d1 173c 8a75 0dbc
00000320: 2842 e4bb 8e51 033c cfe0 cfbb 80ee 81bc
00000330: 5226 f5b8 e6ef b3bb 9fe1 193c f602 dcbb
00000340: b347 43bb ef93 7ebb 08a0 a5ba d011 63bb
00000350: 1212 533b 2c0e 8439 7785 183c 14c9 193a
00000360: 283e 313c 34c9 dd3b d97c 1e3c ade3 023b
00000370: 4180 15bc 085f 953c bead 7d3c e2b0 1d39
00000380: 361e a53a 2eb9 07bb 3a0b f3bb 96fc 2bbb
00000390: afb5 7c3c 24e4 94bb c979 403a 962c a13b
000003a0: 4630 113c c5e7 62bc 4a19 a33b b769 ff3c
000003b0: 3cd8 203b aad1 723a 50c0 27bc 22ab f1bb
000003c0: 4314 b53c 3e0e 5139 f845 ae3c 18f1 c3bb
000003d0: 26db 4e3b 39fc 013c 0dac 31bc 2190 713b
000003e0: 536d 0bbc 0ac6 63b8 8250 edb9 0961 653c
000003f0: 26aa 49bc 9de2 65bc d88f 6d3b f35e 39bc
0.0028792773 -0.0027716758 0.0047981986 -0.002005163 -0.0026524835 0.0089298645 -0.004092746 -0.007507907
0.0030683023 0.0108183045 -0.008193726 -0.0011985421 -0.012450993 -0.0019018912 0.0009231142 0.0087624425
-0.0045515485 0.007634624 -0.013636316 -0.002301011 -0.012252303 -0.0017785329 0.0044339523 -0.0044626105
0.0090327365 -0.01132259 0.0049378085 0.0070565213 -0.0010387708 0.0076395897 0.010411557 0.01250398
0.0048202598 -0.019779703 -0.0020379669 -0.008050156 0.007096684 -0.008030084 -0.007122896 -0.007349781
0.010741695 -0.008038843 0.007997104 0.052946083 0.008991581 0.00875633 -0.012870283 -0.000587766
0.012586711 -0.009703111 -0.001293597 -0.003492144 -0.019125318 0.004085128 -0.013204032 -0.0063334596
0.0032109164 0.005818775 0.0077983127 -0.007383476 -0.005883904 0.00063880446 -0.0016322599 -0.008744643
-0.006435459 0.008622425 -0.003960645 0.027843902 -0.004691157 -0.0025212448 0.018202184 0.008903044
-0.0038835742 -0.0045183743 -0.0109281745 -0.0008660585 -0.002939937 0.0044901203 -0.0016712947 -0.004378262
0.004050818 0.008233982 0.007601067 -0.020556612 0.0050091194 -0.0226029 -0.006559702 -0.0047971867
-0.0049745827 -0.0017550519 0.0018631669 0.007343216 -0.00322811 0.004336215 -0.0022156783 0.0114094755
-0.013851653 -0.0034945717 -0.0064854845 0.017810177 -0.0019245313 -0.0013837069 -0.016370978 -0.0040321774
0.0006154041 0.0025040726 -0.010657343 0.043325737 -0.0017137037 -0.006617278 0.0037075642 0.016500155
-0.0083183395 0.019150082 0.0113511495 -0.003553273 0.011876875 0.004985369 0.005350514 0.020058434
-0.0036807857 -0.0032923964 -0.0023885104 0.008059646 -0.0041627367 0.01310258 -0.0047997236 0.0052444935
-0.037574507 0.04252567 -0.021437874 0.006431092 -0.007765507 0.004188819 0.0074966927 0.051438123
0.017799834 0.11010617 0.0064636893 -0.03078928 0.061584428 -0.063987575 -0.05576085 0.024092408
-0.08174718 -0.034244936 0.022630433 -0.038927387 -0.016126262 -0.040461626 -0.016290657 -0.007758994
0.024529606 0.016225703 0.03259463 -0.022655528 0.011576343 -0.019687729 0.096024595 -0.009454853
0.0008387408 0.012594562 -0.019185979 -0.005433146 -0.0069798636 -0.029509228 0.002622325 -0.058473576
0.0481036 -0.05288358 0.029977754 -0.006337134 0.04295209 0.037297796 0.03252089 0.013736904
0.0039873715 0.03001636 -0.014252401 0.012404794 0.03326586 -0.029195035 0.021380464 -0.02373344
-0.030736154 0.024894048 0.043649293 0.050947618 0.075026624 0.011010817 -0.009200081 0.011116022
-0.0017265002 -0.0015249554 0.009857783 -0.00013595061 -0.016506718 -0.015140301 0.009266335 -0.0086339805
-0.0069658943 0.00801505 -0.006343938 -0.015860796 -0.00011689648 -0.0054912446 0.009392171 -0.00671422
-0.0029797375 -0.00388455 -0.0012636194 -0.0034648068 0.0032206816 0.0002518756 0.009309164 0.000586645
0.010818042 0.00676837 0.009673321 0.001997213 -0.009124816 0.018233791 0.015483318 0.00015038581
0.0012597505 -0.002070974 -0.00741711 -0.0026243082 0.015424176 -0.004543798 0.0007342366 0.004918645
0.008861607 -0.0138492035 0.00497738 0.031178338 0.0024542948 0.000926281 -0.010238722 -0.007375137
0.022104388 0.00019937099 0.021273598 -0.0059796683 0.0031563728 0.00793367 -0.010844243 0.003685959
-0.008509952 -5.4305456e-05 -0.00045264146 0.014000186 -0.012308633 -0.01403108 0.0036249068 -0.011314142

layer1.bias f4 [128]
00000000: db0c 7d3b 0f6f 3eba c9bf f8bb 452d 94ba
00000010: 2d2f dd3a c323 3b3b 3634 95bb 7ff1 6dba
00000020: 7327 0fbc bb57 77ba 93f2 18bb 7c91 c13a
00000030: 267b 2a3a 400e 84b9 9680 b43b ef0c 523a
00000040: 24b6 8cbb df2c abbb fc2c 4bbb 2477 9b3a
00000050: 8d8a b9b9 079b 063b 281d bfbb 0b50 42bb
00000060: 6a51 a03b 4442 edba 0008 9a3a d5f6 30bb
00000070: 13ec eb3a 1ea2 733a 00a6 53bb 709f 6aba
00000080: fadb 663c 8a75 c5ba 811a 2c3b caf6 af3a
00000090: eeae 993a ddd0 233b 73c6 c139 c223 d1bb
000000a0: 1260 2ebb 5630 a338 dc69 3c3a e69d b4bb
000000b0: f945 233a 6deb bc3b abc1 b7bb 3491 1f39
000000c0: 0e50 b4ba 0cf3 693b 289f e3b9 46dd 9cbb
000000d0: 6083 483a 2114 80b9 ce3f 69bb 2db0 e5ba
000000e0: dcb6 e13b 8cae 1fbb a8a9 f4ba 711c 1eb8
000000f0: 553e f03a 4c79 0f3a fdfc d43a e820 b5ba
00000100: daeb dfbb bb1e 973b 28a7 91ba ac5d 233b
00000110: d934 4c3b 08f7 09ba 2583 4c39 bc13 7a3a
00000120: 0144 d0bb 0068 973b 3e4f 363b 1329 b3b9
00000130: 9134 a4ba 49d9 2f3b 3fff 223b 9ba0 f73a
00000140: fdd8 79ba 48d0 c6b9 0b92 5d39 ef42 66b8
00000150: eef2 95bb 1730 d53a 32cd dd3a 04f1 1839
00000160: 79e3 b3ba 99e8 663b 6175 113b f1f3 00bc
00000170: 95c1 cc3b 2793 37bb a911 b8ba aa10 a13a
00000180: 9be1 453b 6285 94ba ea33 453a 9db3 4bbb
00000190: fc92 02bb 09db 38bb 5d8f 0c3b fbf6 ddbb
000001a0: afe4 eab7 3852 bfbb ca70 253c 738c 29ba
000001b0: 0dea 34ba fc08 daba da71 3abb 1a19 f8b9
000001c0: 1997 a0bb 2637 63ba 41bf b13a 911b fdba
000001d0: d879 14ba cd9d a43a a269 5c3b 43d1 cf3a
000001e0: 83d4 6dba 8f6e 77ba 5c04 783b c7ee 5c3b
000001f0: 72f2 d03a 5227 843a 9b9b 6cbb fb0c 363a
0.0038612399 -0.0007264474 -0.007591222 -0.0011304995 0.0016875021 0.0028555251 -0.004553343 -0.0009076818
-0.008737433 -0.0009435375 -0.0023337945 0.0014768089 0.0006503336 -0.0002518762 0.0055084927 0.00080127915
-0.004294174 -0.005223855 -0.0031002155 0.0011861068 -0.00035389178 0.002053918 -0.005832333 -0.002964976
0.004892518 -0.0018101414 0.0011751652 -0.0027002592 0.0017999433 0.00092938717 -0.0032294989 -0.00089501496
0.014090532 -0.0015064937 0.0026260915 0.0013424989 0.0011725107 0.0024996318 0.00036959685 -0.0063824365
-0.0026607555 7.781449e-05 0.0007187405 -0.005511987 0.0006228383 0.0057653696 -0.005607804 0.00015217514
-0.0013756768 0.0035697846 -0.00043415395 -0.00478712 0.0007648971 -0.0002442906 -0.003559101 -0.0017523818
0.0068882536 -0.0024365513 -0.0018666284 -3.7696624e-05 0.0018329123 0.0005473092 0.0016249713 -0.0013819011
-0.0068335356 0.0046118177 -0.0011112439 0.002492766 0.003115943 -0.0005262946 0.00019503811 0.0009539684
-0.006355763 0.004620552 0.0027818228 -0.00034172143 -0.0012527873 0.0026832393 0.0024871377 0.0018892469
-0.000953093 -0.00037920685 0.00021130608 -5.489861e-05 -0.0045760786 0.0016264942 0.0016922115 0.00014585635
-0.0013724408 0.0035233854 0.0022195207 -0.00787066 0.0062486627 -0.0028011294 -0.0014043349 0.0012288291
0.0030194286 -0.0011331255 0.00075226894 -0.00310824 -0.0019924035 -0.0028206727 0.0021447756 -0.006773827
-2.8001463e-05 -0.0058386587 0.010097692 -0.0006467767 -0.00069013314 -0.0016634758 -0.0028449208 -0.00047320948
-0.0049008247 -0.00086675806 0.0013561026 -0.0019310584 -0.0005663908 0.0012559235 0.0033632298 0.0015855212
-0.0009072499 -0.0009438777 0.0037844395 0.0033711658 0.0015941395 0.0010082519 -0.003610349 0.0006944683

layer2.weight f4 [256, 128]
00000000: b5f6 ac3c 7c8b 2dbd 6a9e 81bb 8d7e 29bc
00000010: 65a6 11bc da43 10bc 48ee ad3c 65dd 06bc
00000020: bf15 e5bc 97d6 4cbd bc35 a63d f672 823c
00000030: 7cf8 ef3c 8332 6bbd 2e9f f43c 92d6 db3c
00000040: 5ee1 a2bd c1cb 3eba 1a6b af3c 227f 28bd
00000050: 3e83 96bc 5194 043d 0648 d4bc 2e1d 423d
00000060: 6c1e a6bc 1ffe a13c 27b1 0abd 4cf7 5e3b
00000070: d22c 38bd 66b7 a3bb 9757 29bd 5705 863d
00000080: beb0 2abd 1669 4b3b 4ff6 983d 45b9 93bc
00000090: bb9e acbc a7fb 403d fade 3cbc 5acc 7c3c
000000a0: 502c 0a3d addd cf3c 2d1a cb3d 321f c8bd
000000b0: 6fa2 96bb 477b 12bd df09 f93c 8183 d83c
000000c0: 1f9a 4c3c ccd4 403a fff1 d4bc 13f5 6bbd
000000d0: 9452 553c 85a8 23bc c505 04bd 2236 febc
000000e0: 4b44 c8bc 20bc 11bd e4b7 f93b 12a7 16bd
000000f0: 5527 463d 42c3 38bc 49f4 cebd eb85 8b3c
00000100: 80c6 d83c 75f0 5a3b e0b6 393a 1b55 d9bc
00000110: 1dee 32bc 5b53 783c 57db b03c 0f8f 5439
00000120: b478 7f3c 74d7 5fbd 7b84 e6bc 0938 83bd
00000130: db5e 1bbd 9cb4 613b aee1 9f3c 8d49 a63c
00000140: f20a 743c de1e efbc ab52 5e39 0ea9 863d
00000150: 4579 f63c 6cb5 243d bbdf bbbc 584c d7bc
00000160: beaf a93c a6c9 0abd 3d6e 4c3d 836d 123d
00000170: c3aa 2a3d f1b5 ccbb a239 08bd f6ef 32bb
00000180: 6835 cebc 4b74 5ebc c033 03bd 99da d93c
00000190: 80cd 17bd 6efe cbbc 4e9e ac3d 72e2 1abd
000001a0: 9142 393c 2ad6 6fbd 42c4 f9b8 7895 d9bc
000001b0: a416 2ebd 1eb4 02bd fbef a3bb 0f04 823d
000001c0: 467e 063d dfbd 0ebd 6698 48bb 7d45 e03b
000001d0: 50d9 183c 92a9 d03c f78e 333c 5b23 0f3d
000001e0: ccc7 9abb fa17 e939 cec5 133c 97fc 3d3c
000001f0: c3a7 23bd c0a6 6e3d 0fd7 05bd 9d52 bc3c
00000200: b7ff c2bc e454 c6bc 7bf2 8b3c 3887 1f3c
00000210: 1f05 85bc c708 64bb cf31 fdbc e54d 123c
00000220: 84ac fd3c f472 ce3a c72c 3c3d 3171 4ebd
00000230: 5eb1 aa3b 90fa ee3c 8cde f03b fa99 883c
00000240: 4d51 36bd fb4a ed3c 0eee 1cbc 4fe8 3fbd
00000250: f861 15bd 68b2 03bc 96d0 793d a91c eb3c
00000260: 4aa6 c0bc be1c afbc 2aba 05bc f87c 8a3c
00000270: b095 87bd 1ff7 0fbc 980e 093c dfdb 3cbd
00000280: 4e94 8abd 6571 58ba b85f cdbd c415 c0bb
00000290: 9937 95bc 967f e3bc f3ac be3c 60a2 2cbd
000002a0: d0af ee3c ea90 403d cefb 0bbb 8cec ee3c
000002b0: b26b 893c 85c3 91bc 4787 49bb dd58 9a3b
000002c0: dec7 413c 0866 80ba 2c42 bcbc 083e 823d
000002d0: e08b 57bc bfe4 18ba 8053 023d 5863 4fbc
000002e0: 95c0 acbc 028f 3c3c 1c81 0c3d 1e28 703c
000002f0: 0ef1 6fbc 4716 dbbb aa21 c03c 6034 96bd
00000300: 5487 5a3d 18c1 cf3c 5e99 6c3c 67dc 90ba
00000310: bc2d fdba b4e7 3e3d 2a42 b23c 19fd 89bd
00000320: c9d5 a838 2b19 47bc 2a6f 4abd 6541 89bc
00000330: 5b39 af3c baca f4bc 7838 9e3c 23ae 493b
00000340: 9378 8abd d051 a53d b1da 0dbd b2ae 50bb
00000350: d2f2 243d 478a 3d3d eff1 06bd 39c6 1cbc
00000360: 9fd0 43bd 0d14 71bd 9095 6a3c 20d4 ea3b
00000370: ca14 363d 3728 a0bc 73c6 edbc a874 2e3c
00000380: 2ddf 013d 2143 7cbb 09ad b83d e83e 213b
00000390: 41db d1bc 48b7 bfbc 09a0 a2bd 13e4 0e3c
000003a0: db96 71bc cdca 113d de09 c83b 39ae db3c
000003b0: fe22 453c 1432 f0bc 1364 24be 13db ba3d
000003c0: ee6f b0bb d170 50bc 5b13 65bc d840 dbbc
000003d0: 5e74 283d 5385 06ba 5086 ea3a 8e34 f5bd
000003e0: 7c4e 6038 d3dc dc3c 3675 713c 215c ccbd
000003f0: 5d99 c53a f6bc c23b 62a5 63bc 66db c63a
0.021113733 -0.04236935 -0.003955652 -0.010345113 -0.008889769 -0.00880524 0.021231785 -0.0082314955
-0.02796447 -0.050009336 0.08115718 0.015923958 0.029293291 -0.05742122 0.029861059 0.026835714
-0.07953142 -0.00072782865 0.021413375 -0.04113687 -0.018373128 0.032368008 -0.02591325 0.04739111
-0.020278178 0.019774495 -0.033860352 0.0034021912 -0.04496462 -0.004996228 -0.041343298 0.06543987
-0.04167246 0.0031037978 0.07468855 -0.01803268 -0.021071782 0.047114994 -0.011527771 0.015429581
0.033733666 0.025374258 0.09917102 -0.09771575 -0.0045970003 -0.035762098 0.030400215 0.026429893
0.012487917 0.0007355928 -0.025994299 -0.057606768 0.013020176 -0.009988909 -0.032232065 -0.031031672
-0.024446627 -0.0355798 0.0076207984 -0.036780424 0.048377354 -0.011277022 -0.101051874 0.01703163
0.02646184 0.0033407484 0.00070844404 -0.02652984 -0.010921028 0.015156592 0.021588964 0.00020271189
0.015592743 -0.05464883 -0.028139343 -0.06407172 -0.037932258 0.0034439927 0.019516792 0.020298744
0.014895188 -0.029189523 0.00021202366 0.065752134 0.030087123 0.04021208 -0.022933831 -0.02628152
0.020713683 -0.033883713 0.04990982 0.03574897 0.041666757 -0.006247275 -0.033258088 -0.0027303672
-0.02517195 -0.013577531 -0.032031775 0.026593493 -0.037061214 -0.024901595 0.08428632 -0.03781361
0.011307375 -0.058553852 -0.00011909801 -0.02656053 -0.04250206 -0.031910054 -0.005002973 0.0634843
0.032835267 -0.034849044 -0.0030608415 0.006844221 0.009329155 0.025471482 0.010959378 0.034945827
-0.0047235247 0.00044459087 0.009019328 0.011595867 -0.039954912 0.058264494 -0.0326758 0.022988612
-0.023803575 -0.0242104 0.017083397 0.0097368285 -0.016237793 -0.003479527 -0.03090754 0.008929704
0.03096605 0.0015750811 0.04594114 -0.050400916 0.005209132 0.029172212 0.0073507484 0.016674984
-0.04451113 0.028966418 -0.009578241 -0.046852406 -0.036470383 -0.008038141 0.06098994 0.02870019
-0.023516793 -0.02137601 -0.008162061 0.016905293 -0.066203475 -0.008786946 0.008365296 -0.046108123
-0.06766568 -0.0008256643 -0.100280225 -0.0058619697 -0.018214988 -0.027770799 0.023275828 -0.04214704
0.029136568 0.0470132 -0.0021359804 0.029165529 0.016774986 -0.017793426 -0.0030750798 0.0047103004
0.011827437 -0.0009796033 -0.022980772 0.06359488 -0.013155907 -0.00058324257 0.031817913 -0.012657963
-0.021087924 0.011508705 0.034302816 0.014658002 -0.014644874 -0.0066860053 0.023453552 -0.073342085
0.053351715 0.025360629 0.014440862 -0.0011052013 -0.0019315998 0.046607688 0.021760065 -0.06737728
8.050685e-05 -0.012151997 -0.04942242 -0.016754815 0.021389654 -0.029881824 0.019314036 0.003077396
-0.06761279 0.08072245 -0.03463239 -0.0031842408 0.040270634 0.04627445 -0.03294557 -0.009568744
-0.04780638 -0.058857013 0.014317885 0.0071664006 0.04445342 -0.019550426 -0.029025292 0.01064793
0.031706978 -0.003849216 0.09017379 0.0024604145 -0.025617244 -0.023402825 -0.079406805 0.008721369
-0.014745439 0.035593797 0.006104692 0.026816474 0.012032269 -0.029320754 -0.160538 0.09123816
-0.005384437 -0.01272221 -0.0139816655 -0.026764318 0.0411266 -0.0005131561 0.0017892811 -0.11972915
5.3478856e-05 0.026960766 0.014737418 -0.0997851 0.0015075613 0.005942936 -0.013894411 0.0015171587

layer2.bias f4 [256]
00000000: bac4 7cb9 6842 333c 9f65 333b 31cd 6abb
00000010: baac 65bb 737a 04bc 7f9d 133b 91db e53b
00000020: b047 043c 6fe7 36bb 5a14 3c3c c87b 9938
00000030: eab9 3aba 5af7 40bb 69d2 79bb 4fa4 27bc
00000040: 2d62 013b 0ba8 e9ba 6c12 47ba 901d 563c
00000050: 391e d6ba 19f2 0e3c 6324 e2bb 72d6 69bb
00000060: 85d6 b4bb f24b 493a 6875 a63b 339f f3ba
00000070: eda3 203a 414c 3d3b 56fc d83a 760f a63a
00000080: 7afc 6a36 c6ba 78ba ef8d d7bb 8101 acbb
00000090: e974 e9bb d4d2 f639 a859 2ebc 2343 153c
000000a0: 4597 8bbb 4744 22bb 3c4b 6bbb 6f1c f1ba
000000b0: ee8f 93ba e0f0 9cbb 63d7 5637 345a 933b
000000c0: 265e 7bbb bfcf 693a 7ef4 0ebb 95d6 0fbb
000000d0: 2ad3 433a ed8a a33a 77e5 12bb 08b1 27bc
000000e0: f83f f93a 17be 043c ba7d 0f3b 7cb0 063b
000000f0: 952e 22bb 50bb aabb 0eec 6e38 d4f8 803b
00000100: beac e1ba 96d9 a43a 7f4c c3ba 675b 72bb
00000110: 7cbb 8d3b a1c9 0fbb f862 683a 8140 20bb
00000120: f75d 13bc 0d0b 0f3c 88e1 89bb 5249 113c
00000130: 544e 42bb 5e85 35bc 82cf 963b 1c96 45bb
00000140: 1a34 debb 4829 bc3a e8fd 2cbc 426d 0f3c
00000150: 3090 273b a3bf a93b 5d3a 85bb 5bb0 283a
00000160: fc32 88ba 96e3 683b 67e3 37bb bb3e 503b
00000170: a040 b7ba 7433 a8bb c4c6 ad3a de60 9c3b
00000180: 2b7f a8bb 29a0 d73b c9af 67ba 7769 123b
00000190: c8a6 773b 834a 80bb 5930 ba3b a013 20b9
000001a0: d2ba 4a3b d98b f6bb 9a79 80ba d9f0 7cbb
000001b0: df95 e4b9 9c6a 2abb f207 deb8 e74c a239
000001c0: 303e 09bc 7b63 f33b 3a83 e0ba dea4 79ba
000001d0: 37a0 d8b9 5165 d6ba 4e2a 80bb c5f1 df3b
000001e0: 406d c4bb 8195 5cbb 6252 0ab7 1f6a 9038
000001f0: a591 a0bb 4f51 86bb c0dc 6e3b 69a2 133b
00000200: 846d 7d3b 94d8 ea3a 89c7 003a b5c3 763b
00000210: 02fa a73b 1753 cb3a 8204 0ebc 1278 8139
00000220: 8b5b e43a b5df 1ebc fcd5 943b d668 733b
00000230: a78b 41bb 1b3f 403c f95b 21bc d610 333a
00000240: 31ae 923b 4d1a 593b 05e3 023c 123e d03a
00000250: 81dd 0c3c 4562 62bb 03f4 0abc 79e0 ddba
00000260: 6b4a bdbb 8929 873b 55dd 35bc 1cf0 98bc
00000270: 695a ad3a 9a0e 2d3c 8ec1 873b 8b2e bf3b
00000280: ad02 9ebc 42c3 2d39 6183 283c 4180 33bb
00000290: d66d 0b3b 13e8 05bb e710 e33b eac7 13bb
000002a0: 15c8 0ebb 584e 7bbb bb39 093c e02d 42bc
000002b0: 1546 fdba 4166 233b eea6 8cba 6b38 943b
000002c0: f56c 873b 46c9 793b 5e64 81bb 897f b63a
000002d0: 1f6c 0f3b cd0e 0f3c a471 313b 9c06 a4bb
000002e0: 4355 2e3a 29c0 6cbb 0c13 9e3a 3d13 1f3b
000002f0: 12b2 af3b c3c3 debb 2f42 943b 1d5f 41bb
00000300: b073 b23b 0f22 333b aac9 963b e3a8 093a
00000310: 9100 85ba f96a bbbb af13 313b e2ab 86ba
00000320: e265 3d39 1b6e e4bb e9b0 3b3a 1fa2 cbb9
00000330: c8d7 bb3b a25e 263c ac89 ad3b 3c22 d63a
00000340: c2e6 d23b 4fa7 14bc 5744 9839 a48a cbbb
00000350: 6f2e 51b9 a368 c3bb 748f 30ba 8944 00bc
00000360: bb5a c4bb c18b 04bb ce8b ee3b 0344 fa3b
00000370: 894e a13a 2a42 e6ba 6c44 393b d12d c13b
00000380: dd4d 893c dca8 1c3b d347 7d3c ea1a 9039
00000390: c1bc 1ebb 6cd6 15bb 1dc5 68ba 06e3 3fbc
000003a0: 5766 943a e233 d7bb ee3f 14bb f93f 813b
000003b0: 304c 12bb f410 fbbb 0c24 12bc 70f9 ac3a
000003c0: 719a f33a 6491 313a a3fa d1bb c6ae 2d3c
000003d0: a7c6 17bc 9137 ad3b 4218 9ebb e947 8b3a
000003e0: 3502 65ba 1a0b 9d39 a190 893b d7be a5ba
000003f0: 67f5 e0ba ebca 7ebb 95d9 6eba e319 1ebb
-0.00024105879 0.010941125 0.0027373803 -0.003582787 -0.003504558 -0.008085835 0.0022524295 0.0070146997
0.008073732 -0.0027908941 0.011479462 7.3186646e-05 -0.000712304 -0.0029444308 -0.00381198 -0.010232045
0.0019742355 -0.001782657 -0.00075939926 0.013068572 -0.0016335911 0.008724713 -0.0069013103 -0.0035680798
-0.005518737 0.0007678858 0.005079914 -0.0018586874 0.00061279425 0.0028884562 0.0016554694 0.0012669403
3.5015678e-06 -0.00094882806 -0.006578199 -0.0052492027 -0.0071245325 0.00047077856 -0.010641493 0.009110245
-0.004259976 -0.0024759935 -0.0035902997 -0.0018395315 -0.0011258104 -0.0047894567 1.2805543e-05 0.004496837
-0.0038355677 0.0008919201 -0.002181321 -0.002194797 0.00074701256 0.0012477316 -0.0022414604 -0.010235079
0.0019016257 0.008101962 0.0021895007 0.002055197 -0.0024747003 -0.0052103177 5.6963465e-05 0.0039359126
-0.0017217619 0.0012577053 -0.0014900117 -0.003698075 0.0043253284 -0.0021940249 0.0008864845 -0.002445251
-0.008994571 0.008730662 -0.0042077936 0.008867579 -0.0029648738 -0.0110791605 0.0046023736 -0.0030149287
-0.0067811133 0.0014355564 -0.010558583 0.008754076 0.002556812 0.0051803156 -0.0040657953 0.00064349704
-0.0010391171 0.0035536042 -0.0028059126 0.0031775672 -0.0013981052 -0.005133087 0.0013258089 0.0047722897
-0.0051421127 0.006580372 -0.0008838145 0.0022340694 0.0037788618 -0.0039151325 0.005682033 -0.000152661
0.0030934107 -0.0075239954 -0.0009801865 -0.0038595705 -0.00043599211 -0.0026003486 -0.00010587265 0.00030956345
-0.008376643 0.0074276305 -0.0017128952 -0.00095231633 -0.000413181 -0.0016357099 -0.003911293 0.006834241
-0.005994469 -0.0033658447 -8.244622e-06 6.886222e-05 -0.0049001747 -0.004099048 0.0036447495 0.0022527224
0.0038670013 0.0017917329 0.00049125456 0.0037653272 0.005126239 0.0015512434 -0.008668067 0.00024694257
0.0017422301 -0.009696891 0.0045421105 0.0037141345 -0.0029532702 0.0117337955 -0.009848588 0.0006830817
0.0044763316 0.0033127249 0.007988696 0.0015887639 0.0085977325 -0.0034543436 -0.0084810285 -0.001692786
-0.0057766936 0.0041248244 -0.011100133 -0.01866918 0.0013225797 0.010562563 0.0041429466 0.005834406
-0.019288385 0.00016571305 0.010285229 -0.0027389678 0.0021275184 -0.0020432516 0.006929505 -0.0022549578
-0.0021786739 -0.0038346257 0.00837558 -0.011851758 -0.0019323254 0.0024932774 -0.0010730901 0.004523327
0.0041328617 0.0038114353 -0.0039487323 0.0013923506 0.0021884514 0.008731556 0.0027075792 -0.0050056707
0.0006650278 -0.0036125279 0.001206012 0.0024272942 0.005361804 -0.006798239 0.0045244913 -0.0029506155
0.00544592 0.0027333533 0.004601677 0.00052513013 -0.0010147264 -0.0057195392 0.002701979 -0.0010274614
0.00018062399 -0.0069711334 0.00071598456 -0.00038839967 0.0057325102 0.010154398 0.005295953 0.0016337107
0.0064362 -0.009073093 0.00029042616 -0.0062115956 -0.00019949091 -0.0059634014 -0.00067352434 -0.00782884
-0.005992261 -0.0020224901 0.0072798496 0.007637502 0.001230673 -0.0017567326 0.0028269542 0.0058953543
0.01676076 0.002390436 0.015459019 0.00027485873 -0.0024221393 -0.00228634 -0.000887947 -0.011711841
0.0011322004 -0.006567464 -0.0022621113 0.0039443937 -0.0022323243 -0.007661933 -0.008919727 0.0013196897
0.0018585456 0.0006773679 -0.006408052 0.010600751 -0.009263671 0.005286165 -0.004824669 0.0010626289
-0.00087359856 0.00029953645 0.0041981493 -0.0012645376 -0.0017162979 -0.0038878273 -0.0009111402 -0.0024124316

layer3.weight f4 [512, 256]
00000000: 9ab9 03bf 8e38 0e3f 29cc d73e a772 f1bd
00000010: 350f 75be 04b2 1f39 7ec2 6ebe f8bc 243b
00000020: f839 4f3e e512 b53d 190b 09bf dd11 a63e
00000030: 6461 1dbe 0005 673c c86b 123d feca 023e
00000040: a3e7 0fbc 0a45 243d 18bc 193f 2fb1 1ebe
00000050: be1d 51bd 047b 92bd 853c 80be 3058 d6bd
00000060: 79f4 ee3d 37de 113e e6c2 323e ccca 7d3d
00000070: bab9 2fbe c7b0 33be 0e51 3cbf 2bfa 1bbe
00000080: eb80 b6be ccb7 49be 3674 463e fa1b 3ebc
00000090: c212 033c e039 903d 662f be3d ea6c cf3e
000000a0: 3bee 2e3e c37c ddbe 04bf 573d b635 dbbe
000000b0: d968 e73d c25c 783d b683 e3bc 716a 083d
000000c0: 6e69 59be a7d0 3dbe e72c 273d 63e6 1c3d
000000d0: c20a 013e f269 b8bc 9ee8 c13e e943 c7be
000000e0: 96aa 143d 44b7 81be 9b74 b5be 2d8a 2b3d
000000f0: a708 013f 65e3 5639 39fe c2be 7184 3fbd
00000100: f2e8 2c3f bf1e 4c3d c021 ca3d ea75 2c3d
00000110: 54c9 5bbd 437e 163f a7a2 19be 4131 3ebe
00000120: 8588 1d3f d8f9 4f3d 3860 063f ca97 14be
00000130: c394 3dbd dcc9 293d 6f6a 0b3f 9ca4 67be
00000140: ca00 1c3f 91e8 7dbe 4023 2f3f 3e49 913c
00000150: d19d 103e abd2 0abd 7e44 043e 0ce8 1c3e
00000160: 1b64 94bd 2b5a 373e f17f bf3e afad ac3c
00000170: 0b6a 32be 6444 7bbe 63e2 2e3e a749 9a3e
00000180: 6fef 423e 1705 583e 5c6a f4be d930 073e
00000190: 5047 96be f562 543e 7300 82bd 0262 cebe
000001a0: 5eb9 09bd 08d4 14be 9642 013d 422d 223d
000001b0: fd20 cebe 6a34 9c3c 05f8 c13d 431b ad3e
000001c0: 253b a5bd 7660 e5be 10ef 5f3e c3b1 40bd
000001d0: e99a 653d 782b ddbc e2a4 efbe 77a9 293e
000001e0: 8019 afbc 968c 123e 7246 ba3e 1362 79be
000001f0: 61c2 0b3e 65d4 ad3e aff4 cabd f948 e63c
00000200: 38af 193f 86c9 3abd 47c0 f33e cd41 d53e
00000210: 2522 00be 2653 f1bd c6d9 b63e 2c14 8e3e
00000220: 4dff 08be 14cf 4f3e 55fa aa3c 58c5 acbd
00000230: b265 6abd 9b5a cf3d fc7a 963c 55ff 073f
00000240: 0f62 393e f053 dbbc 0b79 b6bd 8d4e 48be
00000250: e652 12bf a2c8 50be f8ad 013d b57c 55bd
00000260: eed2 f0bd bc51 20bc e235 95be dd46 523e
00000270: bb72 62be ad06 983e 30fe e9bc 74a6 aebe
00000280: 662f 80be 547c 80be daa2 6a3e b9cf 52be
00000290: cfb9 44bd ba43 3c3d 8604 0abf 9442 0fbf
000002a0: 6151 23bb cfb8 083e fab9 cdbd 75f3 463f
000002b0: 8447 e0be f44a bd3e 865a 813e c48a 52be
000002c0: d378 1bbe db46 db3e 52e8 dc3e d981 ab3e
000002d0: 40f0 8e3e 6343 503e 0c9c 713c 96d7 093e
000002e0: 86b2 1fbc 9cb6 5b3d 567a e13d 3ac9 fabe
000002f0: e91d 873e 38fa d8be 3354 86be 9c1d cf3d
00000300: d2a3 b8be 35fd 77be 97c7 333f 1f14 07be
00000310: d892 003d e223 82be 1f35 103e f8cf bb3e
00000320: 9f17 393e 6023 a6be 87e9 c53e dba1 d83d
00000330: 6067 ba3c 8a48 ca3e 479a 143e 692f 163d
00000340: 08cc 803e 7bad 28be 7591 79be d4a3 a33c
00000350: 617b 843e 5e7f 8cbd 7cb8 abbe e896 65be
00000360: ece7 0abf 6d3a 0b3f b9d0 88be 46b3 9abe
00000370: c2e0 343e caa2 923e 2f0e cfbd 5cb4 683e
00000380: f8d0 1a3f 8abb c7bd 1541 94be f917 c43e
00000390: 96bc 473e 05e1 57bc 9073 bcbe feb7 353d
000003a0: ddb5 a53e af56 7f3e 0398 5c3e ca99 7fbe
000003b0: a836 043f 95fb e03a 9aee d73d 6512 943e
000003c0: 42ce c2bd b65b a4bd dd33 80be c073 9a3d
000003d0: 0975 afbd d3c0 c8be 9db5 a83d b41d 4bbd
000003e0: df13 81be 878a 9ebe b497 aabe ccae c13e
000003f0: 298d 483e 8b24 983d 487d 9f3e 5474 173e
-0.5145508 0.55555046 0.4214795 -0.11789446 -0.23931582 0.00015229738 -0.2331638 0.0025137048
0.20236957 0.088414945 -0.5353256 0.32435504 -0.15369183 0.014100313 0.03574732 0.12772748
-0.008783254 0.040104903 0.60052633 -0.15497278 -0.051053755 -0.071523696 -0.25046173 -0.10466039
0.11667723 0.14244924 0.1745716 0.06196098 -0.17160693 -0.17547904 -0.7356118 -0.1523215
-0.35645232 -0.19699019 0.19380268 -0.01160335 0.008000078 0.07042289 0.09286384 0.40512782
0.17083065 -0.43259248 0.0526724 -0.42814416 0.11299295 0.060635336 -0.027772766 0.033304635
-0.21231624 -0.18536626 0.040814307 0.03830565 0.1260176 -0.022511456 0.37872785 -0.38919
0.036295496 -0.25335133 -0.35440525 0.04187982 0.5040383 0.00020493341 -0.38084581 -0.046757165
0.67542946 0.04983401 0.098697186 0.04210464 -0.0536588 0.5878641 -0.15003453 -0.18573476
0.6153644 0.05077538 0.5249057 -0.14511028 -0.04628445 0.041452274 0.5445928 -0.22621387
0.60938704 -0.24795748 0.6841316 0.01773512 0.14122702 -0.033892315 0.12916753 0.15322894
-0.07245656 0.1790549 0.374023 0.021078913 -0.17423265 -0.24537808 0.17078547 0.30134317
0.19036649 0.21095692 -0.47737396 0.13202228 -0.29351282 0.20740874 -0.06347742 -0.4030915
-0.033624046 -0.14534009 0.031557642 0.039593942 -0.40259543 0.019067962 0.09471134 0.33809862
-0.080679215 -0.44800156 0.21868539 -0.047044527 0.056055937 -0.026998267 -0.46805483 0.16568552
-0.021374464 0.14311442 0.3638187 -0.24353819 0.13648368 0.33951107 -0.09909951 0.028110968
0.6003299 -0.045602344 0.47607633 0.41651765 -0.12513025 -0.117834374 0.35713023 0.27749765
-0.1337864 0.20293838 0.02087132 -0.08436078 -0.05722589 0.101247035 0.01836919 0.5312398
0.18103813 -0.026773423 -0.08909806 -0.19561215 -0.5715774 -0.20389035 0.03166005 -0.052120883
-0.11758982 -0.009785112 -0.29142672 0.20534845 -0.22114079 0.29692593 -0.028563589 -0.3411137
-0.25036162 -0.25094855 0.22913685 -0.20587052 -0.048028763 0.045963027 -0.5391315 -0.55960965
-0.0024920332 0.13351749 -0.10045238 0.77715236 -0.43804562 0.36971247 0.25264376 -0.20560747
-0.1518281 0.42827496 0.43145996 0.33497503 0.2791767 0.20338206 0.014746677 0.13461146
-0.009747153 0.053640947 0.11009662 -0.4898165 0.26390007 -0.42378402 -0.26236114 0.101130694
-0.36062485 -0.24217685 0.70226425 -0.1319127 0.03139004 -0.25418 0.14082764 0.36682105
0.18075417 -0.32448864 0.3865473 0.105777465 0.022754371 0.39508468 0.14511977 0.036666308
0.25155663 -0.16472428 -0.24371894 0.01997558 0.2587538 -0.06860231 -0.33539188 -0.22420847
-0.54260135 0.54386026 -0.26721743 -0.302149 0.17663863 0.28639823 -0.10110127 0.22725052
0.6047511 -0.09752567 -0.28955904 0.3829954 0.19505534 -0.013176207 -0.36806917 0.04436492
0.32365313 0.24935411 0.21542363 -0.2496101 0.516459 0.0017164821 0.105435565 0.28920284
-0.09511997 -0.08025305 -0.2503957 0.07541609 -0.085672446 -0.39209613 0.08237765 -0.049588874
-0.25210473 -0.30965063 -0.33318865 0.37828672 0.19585098 0.07428845 0.3115027 0.1479047

layer3.bias f4 [512]
00000000: 9bed 72bc b060 503c c90c a3ba e507 e5bb
00000010: 6e8a e63b e3be 583c 9a26 883c ca54 b63c
00000020: 6efd 393a 6864 99bb 4077 17bc 946b 8dbb
00000030: c5cc b33c 23e3 363c c56d 78b9 ce9e 973c
00000040: aad8 efbb 7e78 9abc 9349 e13b 049e d23b
00000050: c179 543b db6b 01bc 07a6 c3bc c519 993c
00000060: 0a61 2dbc 9771 733c 7cf1 77bc 5e6a cdbc
00000070: 4120 9cbc 414e 2d3c d3f6 bf3c 2925 08bb
00000080: 7781 b53c 9803 92bc cc6f 2abc 6ade c2bc
00000090: bcce d2bb 6b59 113b 5761 553c 1cee 0a3b
000000a0: 6426 ecba 7c96 2f3c 2a9f c4ba fa5d 2dbc
000000b0: 7d04 b0bc 20d2 03bc 91db 27bd 68cf 673b
000000c0: c28c cabb e52b 633b b490 2abc 4b3f 74bb
000000d0: 20b2 8bbb 1664 2a3c 59fa 1d3c 7839 f73b
000000e0: c2bf 5dbc 2978 91bc 3fe0 4f3c c21a 0e3a
000000f0: 931f 843c 61cd 0f3d 3e2e d6ba 7dad adbc
00000100: 48ac 7e3c f0e8 a9b9 fc0e 5d3c 2f12 083c
00000110: 16ca 0e3d d234 5e3c 45a2 c9bc e083 423b
00000120: 4cf6 253b fd77 823c 7513 34bc 285b a0b9
00000130: 3c34 113c 9afd 20bc 47de 95bc fcc0 19bc
00000140: 796f e53a b611 043c 5a97 c2bc 2bb0 da3b
00000150: cfe5 3fbc 1bf6 a7bc 2fc3 a2bb ef94 da3a
00000160: 4786 9e3b 802d da3c e1d5 84bc dccd 643c
00000170: bed0 c6bb 3445 5bbc 8725 ac3c 48de e8bb
00000180: c4a2 4dbb 5121 8d3b 3710 3dbc 8558 77bc
00000190: 9e5a 533c 76be c93b e8f2 e1ba 19e1 1a3c
000001a0: 3a22 a43b 90df 8b3c 6ae9 0cbc 9efc 1cb9
000001b0: c74b 21bb 48b6 a6bc 9dbf 183c 4b83 0c3c
000001c0: 6f48 84bc c292 143c e0dc b7bc 165a 36bd
000001d0: 2208 92bc b2c0 ab3c b123 013c d975 d5bc
000001e0: 2009 7abb 5bc4 bb3a ebad dfbb e935 a43b
000001f0: 64d6 f43b 3c54 c0bc 8f8d cc3b 04e5 233c
00000200: a634 8dbc 46fe 02bd 5788 963c 35f2 61bb
00000210: 00c7 853b b436 0dbb 4d12 74bb a865 f53c
00000220: 78a4 053d 55a7 58bc d6f1 e8bb 4f43 bbbc
00000230: c59f d23b c0d9 6dbc 381a 3a3b 33a1 363c
00000240: 83a1 0ebc fe72 27bc a16d 9dbc 0df1 8abb
00000250: 11ca fa3b 4342 d2bc e3cc aa3c 3819 bfbb
00000260: 467d 17bb c54f e03b 7619 8fb9 ebf7 00bd
00000270: e1bb 423c 5848 19bc 2322 abbb 5f2b c53c
00000280: c479 9c3c 2900 1dbb d263 aa3b 9cb4 12bd
00000290: 5aed a1bc 3459 1a3c b0de 46bb 3539 c1bc
000002a0: d50a 533c 030f 0cbc fa4f 293a 4e49 7dbb
000002b0: 77ca e6bb c2cb f03b 8490 6b3b 1437 bb3c
000002c0: 647e b1bc e607 a5bb e869 463c 8a40 a0bc
000002d0: 1c57 50bc 4fab 29bc 425c 36bc 1904 8e3c
000002e0: 58d5 b3bc fefc cfbc dcd0 ffbb 1a38 c0bc
000002f0: a7fb 57bc 12df 44bc dfec 88bb c1b9 8d3b
00000300: 9b68 443c 28e0 d3ba 6206 843c 33f0 7d3c
00000310: 19d4 5fbc a3cf 203c df92 a73b 8e9e 0b3d
00000320: a366 1fbc 3775 87bc 5fa5 123c 724d 13bc
00000330: 487a 42bc 6c97 5fbc cf50 0ebc 75c0 c9bc
00000340: 5d38 f1bb 41fd b6bb 4e9a ac3b d7fd 3ebc
00000350: 6b33 dbbc 6794 1f3b 2787 a23a 2e01 4a3b
00000360: 7191 223c e27d c23c 46f8 193c 634e 26bc
00000370: 2452 28bc 13ea 243c d0af 8b3c 338a 95bc
00000380: c510 8539 939d b6bb ad67 81bc 5a7e 05bd
00000390: 0b2c 25bc e7b7 183c 7a37 023c ceec a7bb
000003a0: 1bbc febb 95e8 853b 52ef 28bc decd d5bb
000003b0: 4a50 38bb 0563 26bb 6108 38bc 650d 52bc
000003c0: 0d61 ddb9 b18a f6bb 844c 06bb d6b1 1c3c
000003d0: 0c7b 09bc b43f b8bc 5643 033c bbd9 933c
000003e0: 6711 c03c 84ef a0bb 6204 57bc d69d 9fbc
000003f0: 2947 c7bb bf6a cbbc ad32 e83c 17b1 413b
-0.014827157 0.012718365 -0.0012439723 -0.0069894665 0.007035545 0.013229105 0.01661997 0.022257227
0.0007094954 -0.004681159 -0.00924474 -0.004315803 0.021948228 0.011162552 -0.00023692015 0.018508341
-0.0073195295 -0.018856283 0.006875226 0.0064275283 0.0032421204 -0.00789925 -0.023882879 0.018689046
-0.010582218 0.014858625 -0.015133258 -0.025075134 -0.019058349 0.010577739 0.023433125 -0.0020774102
0.02215646 -0.01782398 -0.010402631 -0.023787696 -0.006433336 0.0022178541 0.013023696 0.0021199053
-0.0018016812 0.010717031 -0.0015001048 -0.010581488 -0.021486515 -0.008045703 -0.04098088 0.0035371426
-0.0061813304 0.0034663614 -0.0104104765 -0.003726917 -0.0042631775 0.010399839 0.009642207 0.0075446926
-0.013534488 -0.017757492 0.012687742 0.00054208573 0.016128337 0.035107974 -0.0016340686 -0.02120089
0.015544005 -0.00032407744 0.013492342 0.008305117 0.034860693 0.013562398 -0.024613509 0.0029680654
0.0025323806 0.015926355 -0.010990967 -0.00030585495 0.008862551 -0.009826088 -0.018294467 -0.00938439
0.0017504535 0.008060863 -0.02375381 0.006673833 -0.0117125055 -0.020503094 -0.0049671154 0.0016676466
0.0048377845 0.026633024 -0.016215267 0.013965096 -0.0060673645 -0.0133831985 0.021013988 -0.007106576
-0.0031377533 0.00430695 -0.01153951 -0.015096788 0.012900023 0.006156738 -0.0017238529 0.0094530815
0.005008963 0.017074376 -0.008600572 -0.00014971427 -0.0024611817 -0.02035059 0.009323028 0.008576225
-0.01614782 0.009068193 -0.022444189 -0.044519506 -0.017826144 0.020965908 0.007882045 -0.02605717
-0.0038152412 0.0014325486 -0.0068261526 0.0050113094 0.0074718464 -0.023477666 0.006242461 0.010003332
-0.017237019 -0.031980775 0.018375559 -0.0034476642 0.0040825605 -0.0021547498 -0.0037242353 0.0299557
0.032627553 -0.013223489 -0.007108907 -0.022859244 0.0064277374 -0.014517248 0.0028396975 0.011146831
-0.0087055 -0.010220287 -0.019217314 -0.0042401613 0.0076534827 -0.025666362 0.02084965 -0.0058318637
-0.002311544 0.006845447 -0.00027294055 -0.031486433 0.011885614 -0.009355627 -0.0052225753 0.024068533
0.019101031 -0.0023956394 0.005199888 -0.035816774 -0.019766498 0.009420682 -0.0030345134 -0.023586849
0.0128810005 -0.008548501 0.0006458756 -0.003864843 -0.0070431787 0.0073485086 0.0035944292 0.022853412
-0.021666713 -0.005036342 0.012110211 -0.019562025 -0.012716081 -0.010355785 -0.011130394 0.017335938
-0.021952316 -0.02538919 -0.0078068804 -0.023464251 -0.013182557 -0.012016075 -0.004178628 0.004325122
0.0119878305 -0.0016164826 0.016116325 0.0154991625 -0.013661408 0.009815129 0.005113944 0.034086756
-0.00972906 -0.016535385 0.00895056 -0.008990632 -0.011869974 -0.013646942 -0.008686258 -0.024627903
-0.0073614554 -0.0055843894 0.005267418 -0.0116572 -0.026757916 0.002434993 0.0012399898 0.0030823457
0.009922371 0.023741666 0.009397572 -0.010150525 -0.01027349 0.010065573 0.017051607 -0.018254375
0.0002538023 -0.0055729835 -0.015796507 -0.0325912 -0.010081301 0.0093211895 0.007947797 -0.005124665
-0.0077738888 0.004086564 -0.010310965 -0.0065247854 -0.0028124028 -0.002538861 -0.011232466 -0.012820576
-0.00042224713 -0.0075238575 -0.0020492384 0.009563884 -0.008391153 -0.022491314 0.00801166 0.018048158
0.023445798 -0.004911365 -0.013123604 -0.019484442 -0.006081481 -0.024831174 0.028344477 0.0029555017
